parameters/deephit_model_2D_CNN_1014.pth (torch, 189208 bytes, 37 tensors)

se_block.0.weight f4 [4, 17]
000000 e8 3e 25 bf 8d c9 90 be 04 05 12 c0 e4 3d ed bc
       -0.6454911 -0.2827877 -2.2815561 -0.028960176
000010 71 56 f9 3c 8e d4 f9 3c 9e 61 a2 3d 9d 62 d9 bb
       0.030436726 0.030496862 0.07928775 -0.00663407
000020 4c 56 66 3d c0 5f a8 3f e5 dd 15 3e 4e 24 60 3f
       0.056234643 1.315422 0.14635427 0.87555397
000030 8e 5f 7c 3d df 8d 4d 3e 58 c9 56 3d 69 64 5d 3d
       0.061614566 0.20073651 0.05243811 0.054050837
000040 a9 3e 4a 3f 62 3f e0 3e ad 94 47 3f 72 fc bf 3e
       0.7900186 0.43798357 0.77961236 0.37497288
000050 e5 5d 12 3e c5 da 77 3c 1f d2 ee 3c e1 4a 79 3e
       0.1429363 0.015127842 0.029152928 0.2434497
000060 0d 49 b3 3d 60 31 2e 3d 2a 5f 8c 3e 1f a9 25 3e
       0.08754168 0.042527556 0.27416354 0.16177796
000070 b4 f7 9d 3e ff ad 10 3f 93 60 a8 3c 02 50 d3 3c
       0.30853045 0.56515497 0.020553863 0.025794987
000080 f1 1a 14 3e 0c c0 b9 3c 32 2b e0 bc f8 48 68 3e
       0.14463402 0.022674583 -0.027364347 0.22684085
000090 0c c8 bd 3c 99 e0 1d be 54 50 7c 3c a9 e8 05 be
       0.023166679 -0.15417708 0.015400011 -0.13077034
0000a0 08 9d ed 3d f1 bf fc 3e 5b cd db bd 14 20 f6 39
       0.11602217 0.4936519 -0.10732528 0.00046944676
0000b0 01 67 9d 3d 3f e4 4f 3e af e6 99 3e c1 58 32 3d
       0.07685662 0.20301913 0.3005881 0.043541674
0000c0 70 1b 7e bc cb a8 29 be 13 37 d6 3d ad 0b 24 be
       -0.015509471 -0.16568296 0.10459723 -0.16020079
0000d0 5d e7 22 3e 6f 73 30 bd 76 2b 72 3e 4f a3 98 bd
       0.1590857 -0.043078836 0.23649392 -0.07453024
0000e0 37 bc 96 3d 08 f9 8a 3e bc c4 f4 3c 11 70 93 3c
       0.07360118 0.2714312 0.029878967 0.017997773
0000f0 eb c3 38 3e 34 3b 23 3d 2f 46 e7 3b 82 95 9a 3e
       0.18043487 0.039851382 0.007057927 0.3019219
000100 4e c0 c2 3d f4 a5 8b 3c 22 d0 2b 3e 5a 51 d8 bd
       0.095093355 0.017046906 0.16778615 -0.105623916

se_block.0.bias f4 [4]
000000 f9 5c c3 3c 99 1d ea bd 58 75 6f 38 8c f0 9d be
       0.023848044 -0.114314266 5.7091325e-05 -0.30847585

se_block.2.weight f4 [17, 4]
000000 64 8c 0d bf a7 6e 44 bd e4 e0 6a bc 6a 97 60 3e
       -0.55292344 -0.04795709 -0.014335845 0.2193276
000010 6b 38 4f 3c 69 03 8c bd d3 24 5e 3d e0 65 29 3e
       0.012647728 -0.06836588 0.054234337 0.16542768
000020 66 06 0a bc 36 a3 22 3e 16 51 63 bc 55 3d 0b be
       -0.008424377 0.15882573 -0.013874313 -0.13597615
000030 36 fb 06 3d 48 36 0b bd fd ad b8 3e be 86 e6 be
       0.032954417 -0.033987314 0.36070243 -0.45024675
000040 ff e9 7b 3f 9d 4a 00 be 5f f5 17 be 6a ab 26 be
       0.98403925 -0.12528463 -0.14839695 -0.16276327
000050 86 22 15 3d 8d c3 a5 be 51 fb 1d bd ce c3 09 be
       0.036409877 -0.32375756 -0.038569752 -0.134536
000060 84 58 35 3f 5b b1 2a be e1 fc 3c 3e b8 ff 37 3e
       0.7083819 -0.16669218 0.1845584 0.17968643
000070 d9 7f 5b bb 57 4c d5 bd e8 5d 01 3f 90 c3 d6 bd
       -0.0033492951 -0.10414951 0.50533915 -0.10486519
000080 83 e0 b6 3b 9c 8c 26 be 7f 23 5e 3e c8 11 f1 bd
       0.005580963 -0.16264576 0.21693228 -0.1177097
000090 55 f9 58 3d 51 5b 41 bd 2d bd a9 3d 6f 6f 96 bd
       0.052972157 -0.047206227 0.082880355 -0.07345473
0000a0 54 3e 83 3f 58 be 16 be a1 a8 f6 bd 80 5d 50 3c
       1.0253396 -0.14721048 -0.12043882 0.012717605
0000b0 33 53 97 3e dd b4 dc bd fc 5e dc bd ad ee df 3c
       0.29555663 -0.107766844 -0.10760304 0.02733549
0000c0 fc 0c 29 b9 8a 31 c5 3e 74 d2 d8 3b 4f ac 22 3d
       -0.00016121933 0.38514358 0.006616885 0.039715108
0000d0 1c f2 8d 3f 32 08 35 be 25 dd e4 3e 5c 4a 4f bd
       1.1089511 -0.17678908 0.4469997 -0.050608024
0000e0 d0 ee 4b 3c 05 3e 12 be a5 16 49 3e 14 47 0b be
       0.012447074 -0.14281471 0.19637544 -0.13601333
0000f0 cc 0f b7 3f a5 9d 19 be 50 05 91 be 5c 07 17 be
       1.4301696 -0.15001543 -0.28324366 -0.14748901
000100 0e 32 41 3c 7f c9 4a be 6b ea 20 3e 70 2e 9d 3e
       0.011791719 -0.19803427 0.15714423 0.30699492

se_block.2.bias f4 [17]
000000 07 78 03 3f 9d f4 1c 3e 3f ff 17 3e 7f 96 10 3f
       0.5135502 0.15327688 0.14843462 0.5647964
000010 66 f6 fa bd 01 28 70 bc 87 c9 d1 be 8c c3 4e be
       -0.12254028 -0.014657975 -0.40974066 -0.20191783
000020 33 b8 f5 3d a4 8f 4c 3e c4 7d d5 bd 10 b6 b7 3e
       0.11998024 0.1997667 -0.104243785 0.3588109
000030 47 a3 95 3c d4 d3 ce be bf c6 61 be 57 07 55 bd
       0.018266333 -0.40395987 -0.22048472 -0.052008953
000040 b2 bb ce bd
       -0.10094394

se_block_event.0.0.weight f4 [16, 64]
000000 db 12 1f 3b a4 d0 a9 3d a4 6d 55 3d 45 ee ad 3d
       0.0024272713 0.08291748 0.052106515 0.08492712
000010 49 29 07 3b 96 be 64 3d 77 31 31 3d 2d 5a 22 3e
       0.0020623973 0.05584582 0.043260064 0.15854712
000020 fc d7 0d bc 86 94 a4 3d 68 dc 01 3d f2 95 88 3d
       -0.008657452 0.08036141 0.031704336 0.06669225
000030 49 bd b3 3d 5c 45 3b 3d 4e 73 7d 3b d2 91 b4 3d
       0.08776338 0.045720443 0.0038673463 0.088168755
000040 4b fc 57 3e b5 ec 7a bb b1 91 98 3d 95 9a 4d bd
       0.21092336 -0.003828806 0.074496634 -0.05019625
000050 72 ea 65 3b 1f 30 34 3e 2c 4e 42 3d b2 88 4a bd
       0.0035082367 0.17596482 0.04743783 -0.04944677
000060 38 9f f7 bd 22 14 35 3c ab 87 81 bc 5f e0 95 ba
       -0.120909154 0.011052163 -0.015811762 -0.0011434666
000070 5f 8b 67 3d 3a b7 26 bd 8f cb 4b 3d 72 4d cf 3c
       0.0565294 -0.040702082 0.049754675 0.025305483
000080 b5 18 ac bb 1c 4c c6 bd 8d 2f 07 3e 28 eb 85 3d
       -0.0052519687 -0.096824855 0.13201733 0.06538993
000090 7d 4b bd 3d a8 2b 00 3f ae 67 ba 3d ac 06 5e be
       0.09242914 0.50066614 0.091018066 -0.21682233
0000a0 a6 7d 64 3e 06 70 cd 3d 5b 55 75 3d c7 a3 9c 3d
       0.22313556 0.100311324 0.059895854 0.076484255
0000b0 4c 11 0d 3e 49 5f 80 3d c7 85 b1 3d 3b 01 03 3d
       0.1377613 0.06268174 0.08668094 0.031983595
0000c0 28 3d 20 bc 9b e4 93 be 5c c8 99 3e 9d 93 94 bd
       -0.009780206 -0.2888535 0.30035675 -0.072547175
0000d0 6b 69 0c 3d c9 2b be 3c 58 10 c5 3c 39 d1 98 3d
       0.034280222 0.023214238 0.024055645 0.07461781
0000e0 f6 1e e0 3d db 23 d0 3d 89 a2 af bd 21 c8 63 3d
       0.10943405 0.10163089 -0.08575923 0.05561078
0000f0 48 1b 44 bc 76 7b b9 be b1 b2 24 be 40 93 cd 3c
       -0.011969395 -0.36227006 -0.1608379 0.025094628
000100 32 2f 06 bb 2a a1 08 3b cb 08 62 bc 8e fe 81 ba
       -0.0020474908 0.0020848014 -0.013796042 -0.0009917782
000110 53 80 a0 3c 26 9a df 3b b1 f8 9a 3b ef 1f 87 3b
       0.01959244 0.006823796 0.0047293534 0.00412368
000120 a1 bc 17 ba b6 63 75 bb 69 c9 68 3b de 3d ed ba
       -0.0005788301 -0.0037443466 0.003552044 -0.0018100103
000130 52 04 9c 3c 51 8d c3 bb c2 bb ad 3c ca 96 d7 bb
       0.019045029 -0.005967774 0.021207694 -0.0065792548
000140 16 35 ce 3a 23 11 95 3c 36 99 d9 3b e5 ec 3b bc
       0.0015732374 0.018196648 0.0066405786 -0.011470054
000150 87 dd fb bc 9c cc 2c 3b 29 9f dc bb 7f 4b 86 3c
       -0.03074528 0.0026367074 -0.0067328406 0.016393421
000160 51 30 86 bb 93 0c ea ba 2b 4d 83 bb ee 93 82 b9
       -0.0040951152 -0.0017856531 -0.004007002 -0.00024905748
000170 b3 10 9e 3b 57 54 85 3a 0d d1 2e 3b e7 7a a9 ba
       0.004823768 0.001017223 0.0026674897 -0.0012930305
000180 fc ec 44 3b c3 07 44 3b 53 a2 00 bb 01 26 9d bc
       0.003004848 0.0029911853 -0.0019628003 -0.01918316
000190 79 a6 13 3a 10 b7 89 bc be b0 55 3a 0d 2e 0b 3c
       0.00056324113 -0.016810924 0.0008151642 0.008494866
0001a0 bc 96 4e bc c2 87 85 3b 97 3e 2e bb 27 ce ec 39
       -0.01260918 0.0040750215 -0.00265876 0.00045167023
0001b0 49 a2 96 bb f5 f7 88 bc 48 55 13 bc 72 af 21 3a
       -0.0045969826 -0.016719798 -0.008992501 0.0006167806
0001c0 1d a2 d2 3c 37 75 9d bb 82 f9 a1 3c 40 a7 8d 39
       0.025712067 -0.004805233 0.019772295 0.00027018227
0001d0 94 ff b7 3a c4 c9 2b bb da 5e b1 ba a8 51 d4 3a
       0.001403796 -0.002621279 -0.0013532296 0.0016198652
0001e0 cf ba 96 bb 92 75 0d ba a9 44 9e 3c 2d ed 0c 3c
       -0.004599906 -0.00053962425 0.01931985 0.008601469
0001f0 fd df 0b bb 6b a7 fc 3c f8 2a ff 3b e9 15 53 3b
       -0.0021343224 0.03084155 0.0077871047 0.0032209104
000200 12 62 1b bb f3 33 84 bc 2e 37 03 3e 73 79 03 3e
       -0.0023709578 -0.016138053 0.12814018 0.12839298
000210 a9 32 37 3d df 1b b8 bc 16 c3 60 bb 56 d3 19 3e
       0.044726048 -0.022474227 -0.0034295968 0.15022025
000220 6c 6b 06 3e 00 0e 9f bc f5 96 8f 3c a5 f2 6f 3d
       0.13126916 -0.019415855 0.017528037 0.058581013
000230 8a a1 07 3e 66 56 53 3b b8 3a 17 be 14 0e 82 3d
       0.13245216 0.0032247542 -0.14768493 0.063503414
000240 80 60 89 bd 95 f5 ff 3c fe 3c a4 3d 45 a2 24 be
       -0.06707859 0.031245032 0.08019446 -0.16077526
000250 a1 bb e3 3d ad 3e 1f bd 9a b2 70 bc 9b e7 79 bd
       0.11119772 -0.03887813 -0.014691019 -0.06101189
000260 cd e9 07 bd f4 4d 12 3c 63 54 6c be 75 ca be 3a
       -0.033181954 0.008929718 -0.23079066 0.0014556187
000270 fa 48 2b 3d 74 fe d2 bd a8 0b c7 3c d0 1d bb bc
       0.041817643 -0.10302439 0.02429755 -0.022841364
000280 b5 cb bc 3c 99 ac c5 bc c5 24 78 3d c6 43 9a bd
       0.023046354 -0.024130153 0.06058194 -0.07532458
000290 f8 e6 50 3a 76 9d 1d 3e 04 6d 8d 3d c2 b7 c7 3d
       0.00079689873 0.15392098 0.06905559 0.09751846
0002a0 a6 94 de 3c 98 fb ee 3d ee b3 fa 3c f9 f8 ec 3d
       0.02717049 0.116690814 0.030603375 0.11570925
0002b0 b3 a2 38 3d 7a 5b ab 3d d0 54 de 3b 4a 9b 1c bd
       0.045077037 0.08367057 0.006785013 -0.038234033
0002c0 bc 49 8a 3d 30 74 c6 bc 34 db 16 3e c1 5e 6f bd
       0.06752345 -0.024225324 0.14732057 -0.058439974
0002d0 42 3a 51 3c db 6e 6f bc 8c 1f 2c 3d d0 77 67 bc
       0.012770237 -0.014613832 0.042022273 -0.014127687
0002e0 d4 3c c6 3c f2 8d 07 3d fd c4 99 be 37 e4 c3 bd
       0.024198927 0.033094354 -0.30033103 -0.09565013
0002f0 c3 4f 5a bd bf 64 e9 3d 8a 44 34 3e 75 8c 9d bd
       -0.053298723 0.11396169 0.1760427 -0.07692806
000300 ce 27 11 3b 82 d7 ac 3d 73 52 4a be d5 4d 8b bc
       0.002214897 0.08439542 -0.19758014 -0.017004887
000310 40 27 25 be db e0 d3 bd 40 b3 69 bd b0 e6 f5 bc
       -0.16128254 -0.10345622 -0.05705571 -0.030017227
000320 ca 65 fb 3e b0 66 c2 bd bf 6d 12 3a e5 8b ae bc
       0.49101096 -0.09492242 0.00055858115 -0.021306941
000330 2f 01 30 3d 2c e9 0b 3d 05 c2 d7 bb 42 db 91 bd
       0.04296988 0.034157917 -0.006584408 -0.07121898
000340 d3 7a 6d 3e 7c e9 fb bd e2 9f 99 bd 45 6a c9 3e
       0.23191385 -0.12300393 -0.07501198 0.3933889
000350 da 14 33 3e 4d 5a 00 3f 47 4b 01 3b 80 a7 6f be
       0.17488423 0.5013779 0.0019728707 -0.2340374
000360 bb bb e2 bd b2 06 f8 bc 05 0c ae 3c 6a 47 85 ba
       -0.11070963 -0.03027663 0.021245966 -0.0010168378
000370 ac 5e 11 bd 9b 9d 2d 3e ee 59 10 3e ad a6 b2 bc
       -0.035490677 0.16954653 0.14096805 -0.021807993
000380 eb af c2 3e cd fd ce be c8 0d 5f 3e 6e 7c c8 3d
       0.3802484 -0.4042801 0.21782601 0.09789358
000390 29 1f b5 3d 58 14 89 3e e5 03 11 bc cc d0 17 bd
       0.08843834 0.26773334 -0.008851026 -0.03706436
0003a0 a5 2d 4e 3d 7a 25 d0 bc e6 84 39 bd 3b e9 2b 3d
       0.0503365 -0.025408495 -0.045292757 0.041970473
0003b0 6a 3e 9e 3e 48 23 1e bd 80 65 83 3c 6a 00 1a 3e
       0.30906993 -0.038607866 0.01603961 0.1503922
0003c0 3b df 31 be 80 84 c1 bd 00 96 16 be 52 45 e5 bc
       -0.17370312 -0.094491005 -0.14705658 -0.027987156
0003d0 d4 11 fd bb 31 9b 4c 3e b1 5b 9e 3d 00 91 0b 3f
       -0.0077230725 0.19981076 0.077323325 0.5451813
0003e0 8f d1 8d 3e 53 ac e0 3d f0 a9 b8 bd f2 8c 58 3e
       0.27698943 0.10970368 -0.09016788 0.21147516
0003f0 eb 88 bb 3e b2 fe 69 be 37 49 cf bd 16 04 4a 3e
       0.36627898 -0.22851065 -0.101213865 0.19728121

se_block_event.0.0.bias f4 [16]
000000 b8 06 4c bc e4 97 ad bb 60 1c 28 3e e5 09 9b 3e
       -0.012452774 -0.005297648 0.16417074 0.30280986
000010 6b a9 bb 3d 74 7a 8c bc f9 d3 2c bc 6c f9 10 36
       0.09163173 -0.017148234 -0.010548585 2.1602855e-06
000020 c1 ca e1 b9 8c 3a d0 bd 50 82 e3 3d 36 23 0e be
       -0.00043066408 -0.10167417 0.111088395 -0.1388062
000030 b6 d0 3e 3f 1b ee 48 3d 85 23 90 3e 27 e5 94 3e
       0.7453722 0.0490552 0.281521 0.2908108

se_block_event.0.2.weight f4 [64, 16]
000000 b1 49 6f b4 fe 43 87 b2 ee 6a 88 33 5a cc 9b b4
       -2.2285418e-07 -1.5746988e-08 6.352444e-08 -2.9019685e-07
000010 6c 59 87 b2 49 79 83 32 d4 9c f2 b1 12 a1 09 87
       -1.5756733e-08 1.5305561e-08 -7.0609563e-09 -1.0354069e-34
000020 9b f2 0b a1 74 38 a7 31 99 2c 23 ba ff e8 93 b2
       -4.741612e-19 4.8667577e-09 -0.0006224602 -1.7219007e-08
000030 6a 88 3b b5 3a 1a 48 33 bc 73 5c 34 76 8f 38 34
       -6.986144e-07 4.658998e-08 2.05312e-07 1.7188526e-07
000040 45 aa 51 3d ec 93 a3 3a c0 b2 9c 3d 3f 86 97 3e
       0.051187772 0.0012479997 0.07651281 0.2959461
000050 91 b3 b4 3d 4b fa 20 3b cc 78 09 3d a0 f5 21 34
       0.08823312 0.0024563249 0.033562467 1.5083651e-07
000060 b5 ff de 2d 02 8f b8 3c 4b 39 2f 3e ad 7a 7e 3c
       2.5352035e-11 0.022529129 0.171117 0.015532178
000070 b8 a0 a6 3e 9a 60 7a 3d 47 81 93 3d 4f f5 49 3e
       0.32544494 0.061127283 0.07202392 0.19722484
000080 fe 40 27 be fa 2a 05 3c 4d 7f 7b bc d7 5d b9 3d
       -0.16333386 0.008127922 -0.015350175 0.09051102
000090 ce c9 57 be be f3 58 bb 64 b4 a8 bd 0a 4b 81 34
       -0.21073076 -0.0033104266 -0.08237532 2.408272e-07
0000a0 33 b7 fd 39 73 e0 cd bd 8a 19 b1 bd 33 3e e5 bd
       0.00048392414 -0.10052576 -0.08647449 -0.11193504
0000b0 a0 a0 15 3e 8d 2d 0c 3d cc 77 b9 3d 49 27 dc 3c
       0.14612055 0.034223128 0.090560526 0.026874201
0000c0 81 2a 9e 3d 4e d5 31 3a 4d ce 18 3d 7f 6d 17 3e
       0.07722951 0.0006783799 0.03730612 0.14787863
0000d0 24 ae b5 3d b3 0f 1b ba ee ef e3 3c 41 94 04 b0
       0.08871105 -0.000591512 0.027824368 -4.8232e-10
0000e0 75 59 8b 2b 69 21 a0 3c c4 58 08 3e 1a 53 b5 3c
       9.901373e-13 0.019547181 0.13315111 0.022134352
0000f0 dc 9d 30 3e 8b ce e8 3c 1b 91 37 3d 14 fd c4 3d
       0.17247719 0.0284188 0.044816118 0.09618583
000100 45 51 ed bd 17 39 11 bc 04 fb c3 bc 4d 50 f7 3d
       -0.115877666 -0.008863709 -0.023923405 0.12075863
000110 9a ef fb bd dc 8c e6 bb cc 3f 5e bd dc b2 47 b5
       -0.1230156 -0.0070358347 -0.05426006 -7.439355e-07
000120 fa 19 f4 39 53 52 85 bc 61 01 fc bd de 90 b7 bc
       0.0004655866 -0.016274607 -0.123049505 -0.022407945
000130 38 3c 96 3e 65 ac 51 3d 13 3b 42 3e e5 d1 37 3d
       0.29342818 0.0511898 0.18967848 0.044877905
000140 b8 16 58 bc 80 31 08 bc 25 a1 a3 3c e1 88 77 3d
       -0.01318901 -0.008312583 0.0199743 0.060433272
000150 88 99 11 ba 8e 17 49 ba 90 f8 6a bb 85 4c 04 ad
       -0.0005554189 -0.00076710514 -0.0035853721 -7.520322e-12
000160 3f fa 81 39 0d 21 a1 bb a2 ff 6b 3e 2c e2 76 bc
       0.00024791245 -0.00491727 0.23046735 -0.015068572
000170 65 a4 aa 3d 50 be 87 3c 84 aa 13 3d ab ad 47 3d
       0.08332137 0.01657024 0.03605129 0.048749607
000180 01 79 24 3d 01 90 9a b6 d5 d6 1c 3c e2 62 a3 3d
       0.04015446 -4.606322e-06 0.009572704 0.07977845
000190 3e d3 1a 3d db 45 39 b8 26 9c 0d 3c 17 f2 ec 29
       0.037799112 -4.4172495e-05 0.008643186 1.0522501e-13
0001a0 ea 8c 9b 2c 9e e1 57 3c e7 7d d8 3d f0 6b 82 3c
       4.4210096e-12 0.01317635 0.10570889 0.01592061
0001b0 f8 81 a3 3d 14 55 2b 3c 74 97 e1 3b c8 04 af 3c
       0.07983774 0.010457296 0.0068845097 0.021364585
0001c0 62 86 f5 bb 19 f8 86 3b 53 8d aa bc 20 71 f3 bc
       -0.0074928263 0.004118931 -0.020819342 -0.029717028
0001d0 56 b2 a1 bc 11 df 91 3b a2 6e 8a 3d d5 d5 0c 3a
       -0.019738358 0.0044516404 0.06759383 0.00053724396
0001e0 5f c9 bc 38 46 eb be 3d 9b c8 79 bc fe 66 ac 3d
       9.002047e-05 0.093222186 -0.015245582 0.08418082
0001f0 95 45 f1 bc 6b 3a e0 3c 4a f2 89 3d f2 8a 9a 3c
       -0.029452125 0.027371606 0.06735666 0.018865082
000200 41 ba 72 be 99 b8 43 3c 0b c6 a9 3e 4b 69 05 3e
       -0.23703863 0.011945867 0.33158907 0.13028447
000210 07 74 95 3e 28 3d dd 38 da 3a ac bc a3 ff a2 b4
       0.29190084 0.000105494924 -0.021024156 -3.0360852e-07
000220 41 0d 8f b4 20 38 94 bb 46 59 22 be c0 dc 90 bc
       -2.664547e-07 -0.004523292 -0.15854368 -0.017683387
000230 52 ff df 3d 71 db 98 3e 74 7d 12 3d 85 20 b6 3e
       0.1093737 0.2985492 0.035764173 0.35571685
000240 8b ff ae bd f0 29 e7 ba 49 4a 97 3b 9a 18 0a 3e
       -0.08544835 -0.00176364 0.00461701 0.13485947
000250 01 34 bd bc b7 10 10 bb 3a 5f 07 3c 8f ff f8 b1
       -0.023096086 -0.002198262 0.00826245 -7.2468036e-09
000260 30 37 54 39 f9 7c 86 bc f7 7a 36 be e2 7e 2a bd
       0.00020238454 -0.016417013 -0.17820345 -0.04162491
000270 55 50 b1 3e f4 c2 13 3d 1d 21 ea 3d 08 40 ae 3d
       0.346316 0.036074594 0.11432097 0.08508307
000280 13 8a a6 bb 49 85 33 ba c6 3f f4 3b 0e d1 2d 3d
       -0.0050823777 -0.0006848169 0.0074538914 0.0424357
000290 89 fd a5 3b 24 61 b9 b8 26 e3 82 3b 5d 53 37 2a
       0.005065624 -8.839581e-05 0.0039943634 1.6282588e-13
0002a0 e1 ed a1 ab d5 30 75 3b 83 d4 7f 3e bd 49 a8 ba
       -1.1505763e-12 0.003741314 0.2498341 -0.0012839359
0002b0 04 56 b6 3d 2f 97 a0 3b e8 a6 1c 3d 26 35 14 3d
       0.08903125 0.004900835 0.03824511 0.0361835
0002c0 99 7d 20 3d 90 4d b0 3a 97 06 9d 3d df 35 ee 3c
       0.03918228 0.001345085 0.076672725 0.029078422
0002d0 d3 aa a3 3d 6f ff 45 3b ce 08 16 3e 75 58 eb b3
       0.079915665 0.0030212065 0.14651796 -1.09591305e-07
0002e0 d9 d3 8c 35 d2 ef 0e 3e c0 b9 e8 3c 65 ed c6 3d
       1.0492469e-06 0.13958672 0.028408885 0.09713248
0002f0 93 82 2d 3d ae c5 83 3d 7d 8e ba 3d ab dd 7f 3d
       0.042360853 0.06434189 0.09109209 0.06246726
000300 2d c4 0a 3e f2 10 8d ba b7 5a ad 3d 57 46 88 3e
       0.13551398 -0.0010762496 0.08464568 0.26616165
000310 2a 9b e0 3d 9b 9a 81 bb 08 63 0e 3d 4f 42 18 35
       0.10967095 -0.003955198 0.034762412 5.6720904e-07
000320 7f 73 d1 b8 47 61 ab 3c 9f 45 94 3e ef 53 39 3d
       -9.9874094e-05 0.020920409 0.28959367 0.04524606
000330 8a 11 b9 3d 9e cc 7a 3d 0b 76 1f 3d 46 c2 4b 3e
       0.090365484 0.061230294 0.038930934 0.19898328
000340 66 69 95 bc 2c 39 89 3b 2e 17 cb 3a 31 3e ca 3c
       -0.018238734 0.0041877236 0.0015494579 0.024687858
000350 d8 ec 2b 3b a6 77 f4 3b a8 32 9d bb 52 a4 2e ae
       0.00262337 0.0074605523 -0.0047972985 -3.9708965e-11
000360 8c 2a e4 ac bc 4e b4 bb fb 3d 11 bd 9b d6 e0 bb
       -6.4848734e-12 -0.00550255 -0.0354595 -0.0068615205
000370 cc d1 81 3c 0c 55 76 3b ab ff c5 3c d0 b1 7a ba
       0.01584711 0.0037587313 0.024169764 -0.00095632393
000380 8d 67 98 be 0d 47 c1 bb 44 d7 00 3e d5 a2 8f 3e
       -0.29766503 -0.0058983625 0.12582117 0.28053918
000390 e5 87 e2 3b 1d 6a f5 bb 84 4a ba bb 7b 13 1c 36
       0.0069131725 -0.0074894563 -0.0056851525 2.325715e-06
0003a0 1a 6e 63 b8 03 d3 99 bc de 1a c5 be 55 8a 1c bd
       -5.4223558e-05 -0.018777376 -0.3849706 -0.03821786
0003b0 19 db 7d 3e 01 72 67 3e 6a 92 cf 3d 2b 66 d6 3e
       0.2479061 0.22602083 0.10135348 0.41874823
0003c0 04 60 9c bc 54 9a 5c 3b 93 05 b8 3b 49 4d 25 bd
       -0.019088753 0.0033661323 0.005615899 -0.040356908
0003d0 93 1e ad 3c 53 8e aa ba 7d 9d f0 3d 0a 55 ce b3
       0.021132743 -0.0013012387 0.117487885 -9.608091e-08
0003e0 df 86 50 b8 a8 4a 14 3e 18 c7 9e 3c 84 bc e8 3d
       -4.9716673e-05 0.14481604 0.019382045 0.113640815
0003f0 3a fc 01 bd 64 44 0f 3d 9c 51 97 3d fb a6 0d bd
       -0.031734683 0.03497733 0.07388613 -0.034583073

se_block_event.0.2.bias f4 [64]
000000 89 bc c8 b3 58 df d3 3d 39 a1 b3 3d 0a f1 52 3d
       -9.34752e-08 0.10345334 0.08770985 0.051499404
000010 10 5f 9c 3d d8 9b b8 3c f1 a7 e5 3b 83 3e 94 3d
       0.07635319 0.02253525 0.0070085456 0.07238486
000020 0f 7e 59 3e 5d 69 ee 3d 25 68 b0 3c 53 c9 08 3e
       0.21239494 0.1164119 0.021534035 0.13358049
000030 d4 21 e9 3d c2 ae 9f 3c 7a 96 9f 3c 01 68 9b 3d
       0.11383405 0.01949251 0.019480933 0.075881965
000040 a5 93 2a 3e b3 76 0d 3e 87 40 8e 39 b4 22 3f 3d
       0.16657884 0.13814811 0.00027132427 0.046663955
000050 dd 5d 07 bd 98 30 5c bd ea 7d 76 3b eb b1 27 3d
       -0.0330485 -0.05375728 0.0037611672 0.04094116
000060 10 82 5d 3e cc 5a 9b 3b 3f 9b 7e 3d fc 6c c8 35
       0.21631646 0.0047410484 0.062159773 1.493288e-06
000070 f4 16 c5 3c 73 cd 47 3e ea 7b e2 3d aa c3 7a 3d
       0.024058796 0.19511966 0.11058791 0.061221756
000080 53 6f 69 3d 77 73 45 3d bf f4 db 3d cc e0 7f 3d
       0.056990933 0.04820582 0.10740041 0.062470242
000090 f6 4e d3 3d 53 d7 92 3e 01 b3 11 3d 67 a7 a8 3d
       0.10317795 0.28679904 0.035571102 0.082350545
0000a0 37 70 e2 3d 7b f2 4f 3d 54 92 a8 3d dc 96 29 bc
       0.110565595 0.050768357 0.08231035 -0.010350909
0000b0 9f 67 97 3d b8 d0 62 3d 4e b6 07 3d 00 d4 e3 3d
       0.07392811 0.05537483 0.033132844 0.1112442
0000c0 c6 30 07 3e c9 66 a0 bd 10 47 17 3e e1 26 20 3e
       0.132022 -0.07832105 0.14773202 0.15639831
0000d0 52 9c dc 39 04 f4 76 3e a5 86 d2 3d 78 ff 46 3d
       0.00042078138 0.24116522 0.10279588 0.048583478
0000e0 91 e2 a7 3d 39 7d b9 3d 62 cf db 3d e7 3a 21 3e
       0.08197511 0.090570875 0.107329145 0.15745126
0000f0 f0 64 87 3c ec b4 8e bd ec 22 b2 3d 22 a2 67 be
       0.016527623 -0.06968102 0.08698067 -0.22620443

se_block_event.1.0.weight f4 [16, 64]
000000 9b 2c c4 ba 25 90 ad ba 94 26 8c 3d 0f 17 f2 3d
       -0.0014966907 -0.0013241811 0.06843296 0.11820804
000010 6b 20 98 3d 84 62 a3 3d 1b 4b 0f 3d 4e 82 13 3e
       0.07428058 0.07977775 0.034983736 0.14405176
000020 0a 4b 1f 3e bd 31 c4 3d 3a 9a 99 3d 20 ab 99 3d
       0.15555969 0.09579799 0.075001195 0.07503343
000030 10 67 e9 3d 86 99 10 3d 9c 07 80 3d 92 ff dc 3d
       0.11396611 0.03530266 0.062514514 0.10790934
000040 d6 bb db 3d fe bb 06 3e 20 a8 7b bc b7 a4 58 bd
       0.10729186 0.13157651 -0.015359908 -0.05289146
000050 fe 21 41 be 51 9e 72 3d 67 d9 2f 3d 21 5d 12 3e
       -0.18860623 0.059233014 0.04293194 0.14293338
000060 34 45 c4 3d b0 c6 6c 3c 62 34 11 be 65 74 c0 3a
       0.09583512 0.014451668 -0.14180139 0.0014683126
000070 bc 0f 8b bb e2 f5 6f bd 08 10 91 3d 27 65 02 3d
       -0.004243819 -0.0585841 0.07083136 0.031834748
000080 7d 96 3c 3e 88 51 c7 3d 8e df 43 3e e9 b1 d2 bb
       0.18416782 0.09732348 0.19128248 -0.0064299
000090 53 4e e0 3d 0b 16 bf 3e 40 4a 87 3e 96 c0 e0 3d
       0.10952439 0.37321505 0.26423836 0.10974233
0000a0 22 ce 1e bd 54 64 2b 3e 9c 40 b2 3d 19 80 73 3e
       -0.038770802 0.16737491 0.087037295 0.23779334
0000b0 6c 7d 3c 3e 50 9c 0b 3e e3 4d e6 3d 77 fa 83 3d
       0.1840722 0.13633847 0.112453245 0.06444257
0000c0 f3 2f 05 3e 99 2e 83 bd bb a2 f2 3d a7 61 ec 3d
       0.13006572 -0.06405372 0.118474446 0.11542063
0000d0 71 19 8c 3c af 69 99 bd c3 17 fb 3d 88 dd fd 3d
       0.017101975 -0.07490861 0.122603916 0.12395769
0000e0 3f 8e b9 3d a4 b2 7c 3e 54 c7 3a 3e d4 8f 39 3e
       0.090603344 0.24677521 0.182401 0.18121272
0000f0 f0 3f 86 3e b4 22 13 3e cd ad 87 3d 29 4c 19 3e
       0.26220655 0.14368707 0.06624947 0.14970459
000100 b1 0a 3b 35 c2 5d 13 bb 06 41 28 bb 32 05 34 bb
       6.9678487e-07 -0.0022486304 -0.0025673523 -0.0027468917
000110 75 d6 47 bb 40 ab 01 bb 5a 19 86 ba 3f 07 9c bb
       -0.0030492817 -0.001978591 -0.0010230944 -0.004761606
000120 fa a9 ea b9 4e 93 b8 bb 86 57 71 b8 3e 84 f6 39
       -0.000447586 -0.0056327945 -5.754039e-05 0.00047019304
000130 d2 4c e1 bb ac 9a 0b 3b 10 da 03 3c ec 78 f2 ba
       -0.006875613 0.0021301908 0.008047596 -0.0018499172
000140 ac 3f 9e 3a f2 40 67 3c 80 d5 d6 3a c9 ba 0f bc
       0.0012073419 0.014114605 0.0016390532 -0.00877256
000150 df e0 7b bb fa 03 02 bc b1 5c 67 38 22 34 32 3b
       -0.0038433594 -0.007935518 5.5161017e-05 0.0027191718
000160 e1 86 01 3c d1 c0 28 bb 5f 88 a9 bb e6 1f 51 36
       0.007905693 -0.0025749693 -0.0051737274 3.1161994e-06
000170 a6 f6 7a bb ca 61 db 3a 72 e1 61 39 c2 fd 6c bb
       -0.0038293987 0.0016737517 0.00021541657 -0.0036161994
000180 7c 50 08 bc 03 49 37 3c a8 47 a8 b9 aa 56 fd ba
       -0.00831997 0.011186841 -0.00032096845 -0.0019328196
000190 7f 61 1c bb ab d6 41 3b 51 3f 16 bb 60 54 9d 3b
       -0.0023861823 0.0029577415 -0.0022925923 0.004801318
0001a0 5e b5 dc 3b b5 71 59 bb 6f 01 f3 b7 df a8 d0 ba
       0.006735488 -0.0033179347 -2.8968525e-05 -0.0015919468
0001b0 32 a4 52 bb 06 a5 6d bb 9c 4a d7 3b 00 31 42 bb
       -0.0032141325 -0.0036261692 0.0065701734 -0.0029631257
0001c0 01 8e e6 3b 67 78 b9 3b 32 37 3b bb b8 76 6b 3c
       0.007035971 0.005660105 -0.0028566835 0.0143715665
0001d0 3a 10 3c bb eb eb cb b7 82 a8 d5 b9 9e 1c be bb
       -0.0028696195 -2.4309344e-05 -0.00040752074 -0.0058017513
0001e0 49 90 58 bb 82 f6 a3 bb 1a ae 11 3c ac 8e 8e 3a
       -0.0033044985 -0.0050037513 0.008891607 0.001087626
0001f0 cd 7c b2 bb 49 d0 e5 3b 4b 31 80 3a f5 07 3b bc
       -0.0054470063 0.007013355 0.0009780315 -0.011415471
000200 9a 10 80 3a dd 68 60 3e 91 ae 00 3e 8e d2 52 3d
       0.0009770573 0.21915002 0.12566592 0.05147033
000210 4e d7 d3 3d f9 a3 04 bd 79 4f 2f bd d1 5e 6a bd
       0.103438005 -0.03238294 -0.0428004 -0.05721933
000220 14 ab 28 3f 21 55 a8 3d 51 94 2c 3d 1a 62 c6 bc
       0.65886045 0.08219362 0.042133633 -0.0242167
000230 68 75 72 3e c3 3f 88 bc 60 84 e1 3e d4 14 77 bd
       0.236776 -0.016631966 0.44046307 -0.060322598
000240 ab 6f 08 3f 65 d7 02 3e c3 25 23 bd e2 2b 15 3f
       0.5329539 0.12777479 -0.039830934 0.58270085
000250 a2 29 2a 3f 0e 93 00 3f e6 aa 99 bc 7c 79 d3 3d
       0.66469777 0.5022439 -0.018758249 0.10325906
000260 20 57 e2 3e a9 16 82 bc 48 87 19 3f 54 09 32 ba
       0.44207096 -0.015879946 0.5997205 -0.0006791551
000270 38 8c a7 3a 21 48 52 3e 5b 66 a9 3e cd 51 f7 bb
       0.0012782877 0.20535327 0.33085904 -0.007547593
000280 a6 74 c4 3e 66 48 08 3e 56 39 61 3e e8 41 8c 3c
       0.38370246 0.13308868 0.21994528 0.01712127
000290 da bc c7 3d 53 e6 bf 3e c1 2d 22 be 7f 13 59 3e
       0.097528175 0.3748041 -0.15837766 0.21198843
0002a0 04 2c b6 3e 24 b6 c9 bd be c8 a9 bd c4 16 d3 3d
       0.35580456 -0.09849194 -0.08290242 0.103070766
0002b0 74 16 e9 3e 8a bc 54 3c 67 df 50 bc 5b da 7d 3e
       0.45524943 0.012984404 -0.012748576 0.24790327
0002c0 38 d1 7c 3e de 18 8f 3e ea 12 c4 3e fe fc 50 3e
       0.24689186 0.2794866 0.3829568 0.20409009
0002d0 d6 77 8d bc 8a d7 f2 3d c1 38 30 bd 33 e1 10 3f
       -0.017269056 0.11857517 -0.043022875 0.56593627
0002e0 7b 55 c2 3e d0 2d 38 bc 55 a5 81 3d e5 f5 9c 3e
       0.3795584 -0.011241391 0.06330363 0.30656353
0002f0 c0 8d bf 3e d5 2d f8 3d 11 62 08 3e fb 90 37 3e
       0.37412834 0.12118117 0.1331866 0.179264
000300 ba e8 8e 9a f2 44 71 3b e0 a2 d5 39 bc 19 dd b8
       -5.9105814e-23 0.0036814776 0.00040747877 -0.000105428946
000310 bb 54 bf ba a8 c8 f4 38 c4 bb 8b 39 11 f8 c4 39
       -0.0014597395 0.00011672202 0.00026652042 0.00037568857
000320 20 2e da 3b 62 ab f7 ba 5f fb 71 3a e0 73 9a 3b
       0.0066583306 -0.001889568 0.00092308776 0.0047135204
000330 af 32 de ba 8e 13 a7 3a e3 38 57 bb ad 3c 06 3b
       -0.0016952361 0.0012746917 -0.0032840304 0.0020482943
000340 5d c8 e0 ba 36 01 2a bb e4 de 12 bb c4 a0 28 3b
       -0.0017149557 -0.0025940663 -0.0022410685 0.002573059
000350 f6 f1 fd ba be 68 3b bb 7c 78 05 38 ad b9 0b b9
       -0.0019374478 -0.0028596367 3.182188e-05 -0.00013325243
000360 00 88 e3 ba 8a 66 55 39 26 da a2 3a 64 5e a5 36
       -0.0017359257 0.00020351462 0.0012424632 4.9283717e-06
000370 21 94 c5 3a 50 a7 30 ba 64 6d 0d 3c aa 8d 4b ba
       0.0015074053 -0.00067387987 0.008632038 -0.0007764945
000380 37 57 3e 3b 2b 55 f2 ba 4d d6 e4 3b 89 12 b2 ba
       0.0029043683 -0.0018488517 0.0069835545 -0.0013585846
000390 75 e5 c5 3b 71 7e 50 3b 38 31 ce 39 17 59 95 bb
       0.0060393163 0.0031813646 0.00039328053 -0.0045577395
0003a0 f8 04 48 bb b4 7c 99 b8 dd 22 84 3b 44 5a 81 39
       -0.003052054 -7.318836e-05 0.0040324763 0.0002467205
0003b0 77 84 6a 3b 71 c5 83 39 b0 a8 4d 39 f0 89 54 ba
       0.0035784522 0.00025133372 0.00019613164 -0.00081077125
0003c0 a1 0e 05 ba 4a 28 a9 bb 5b d7 37 bb 95 f7 98 ba
       -0.0005075727 -0.0051622735 -0.0028051946 -0.0011670465
0003d0 23 f0 96 ba 44 3b 09 3c a3 47 aa 3a d2 27 94 3b
       -0.0011515658 0.008375946 0.001299132 0.0045213485
0003e0 77 9b 2d 3b 2c 48 07 3b 04 da 51 ba 05 47 8a bb
       0.002649037 0.0020642383 -0.0008005204 -0.004219892
0003f0 b6 73 bc ba 1b 9e d7 bb c2 94 81 3b 94 ee 9f ba
       -0.0014377746 -0.006580127 0.003954501 -0.0012201839

se_block_event.1.0.bias f4 [16]
000000 a3 d1 dd 3c 6e db c6 bb b2 ca 4e 3f c3 a4 cb 3a
       0.027077502 -0.0060686385 0.8077804 0.0015536774
000010 07 40 62 3e f1 7d 0a bb db 2e f3 bd 3f 76 03 bc
       0.22094737 -0.0021132196 -0.11874171 -0.008023798
000020 34 22 4d bd b5 4b c9 3c df 7c 06 bd fe e5 99 37
       -0.050081447 0.024572233 -0.03283393 1.834612e-05
000030 76 f9 21 bc 81 0e 77 3e 11 fe 80 3e b1 b1 17 bc
       -0.009886136 0.24126627 0.25193837 -0.0092586735

se_block_event.1.2.weight f4 [64, 16]
000000 d3 8a 3a b1 7f ff d9 31 95 8b 01 b9 2f 4d 2a 16
       -2.7145475e-09 6.3445778e-09 -0.00012354397 1.3756845e-25
000010 3c b2 0a 35 68 fd 08 32 19 6e 2f b3 44 59 6c b0
       5.166837e-07 7.97386e-09 -4.0845496e-08 -8.5983154e-10
000020 8b fd d3 b2 c2 5c 75 b2 94 1c 10 b2 dd 9b 9e 33
       -2.4678931e-08 -1.4281968e-08 -8.388401e-09 7.3858e-08
000030 29 ac c8 b2 27 06 e0 33 d4 cf f2 33 74 e0 97 2f
       -2.3361354e-08 1.0431932e-07 1.1306807e-07 2.7626224e-10
000040 ec c4 6d 3d f1 9c 67 b9 df 11 c6 3e 67 bf e6 b9
       0.058049127 -0.00022088342 0.3868551 -0.00044011624
000050 c2 71 e6 3d a6 aa 29 39 9f a6 24 3b cd e2 7c 3c
       0.11252166 0.00016180667 0.0025123728 0.015434933
000060 db a5 14 3a ed 0d 7c 3d 21 20 d6 3c 52 7f c9 bc
       0.00056704663 0.06153672 0.026138367 -0.024596844
000070 e7 ec 54 bb 33 f3 0d 3e db 3d b4 3d 6b be 8c 3b
       -0.0032489838 0.13862304 0.088008605 0.0042951605
000080 58 bc 2e 3c 55 f5 3a 3a 29 f9 91 3e 9a 4d 47 3b
       0.010665022 0.0007131894 0.28510407 0.0030411244
000090 3b 53 1c 3d 8c 0d fc 3a a1 a7 99 3c 13 e1 ec 3b
       0.038165312 0.0019230112 0.01875669 0.0072289794
0000a0 e7 37 47 bb 88 47 b7 bc 31 d6 3f 3c 11 3f 53 bc
       -0.003039831 -0.022372976 0.011708782 -0.012893454
0000b0 67 d1 4c bc c6 ba 3e b9 9b 4a fb 3b 0e e6 13 3b
       -0.012501097 -0.0001818939 0.007668806 0.0022567543
0000c0 1d b2 63 3d 25 54 2d 38 a4 4a 5e 3e d2 bd a7 ba
       0.055589784 4.132478e-05 0.2170816 -0.001279766
0000d0 48 6c 40 3d a8 6c e9 38 40 52 bc 3c 6b 9d 1b 3b
       0.046978265 0.000111305446 0.022988439 0.0023744951
0000e0 04 20 26 ba a5 88 a1 3c c1 17 da 3c 09 f6 09 3c
       -0.0006337168 0.019718478 0.026622655 0.008420476
0000f0 a5 24 2b 3c 83 91 a7 3d e2 36 b6 3d cb e0 19 ba
       0.010445748 0.08182051 0.08897187 -0.00058699836
000100 80 22 18 3d a0 cc fc b9 61 7a 92 3e 0e 91 43 ba
       0.037142277 -0.00048217643 0.28608993 -0.00074602745
000110 30 8d 98 3d df 26 dd 3a e6 99 03 3d 1f 87 f8 3a
       0.074488044 0.0016872546 0.03212919 0.0018961168
000120 10 7b 37 3b c3 ce 47 bc 70 61 02 3c a5 89 af 3c
       0.0027996935 -0.012195292 0.007957801 0.021427939
000130 ba a9 c5 3c d1 4d ae 3b 7e e2 20 3d 24 61 3f 39
       0.024128783 0.005319335 0.0392785 0.00018251367
000140 9c d3 73 bc 0a c5 84 b9 76 fd 4f 3e 92 90 14 3a
       -0.014881995 -0.00025323807 0.20311531 0.00056672946
000150 85 7d 81 3c 9a 25 c3 ba cd d4 8a bc 45 7a dd 39
       0.015806923 -0.0014888525 -0.016947174 0.00042243503
000160 1a 1f 29 bc 0c c3 bd 3c 3c 3e 27 bb 5d 2a 18 3d
       -0.010322357 0.023164295 -0.0025519272 0.037149776
000170 a3 21 df 3c 53 62 51 3d 7d af 2f 3a 84 cb b0 39
       0.027237719 0.05111916 0.000670187 0.00033720967
000180 9b 9e 58 3c 56 1b 09 b5 7d 54 d1 3d 00 f7 83 38
       0.013221408 -5.1076256e-07 0.10221193 6.292574e-05
000190 dd db b9 3b 26 a6 ec b4 85 31 54 3b e7 20 eb 3a
       0.0056719617 -4.4079314e-07 0.0032378149 0.0017938883
0001a0 43 3f 8b 39 88 f2 53 36 87 cb 7f 3b 18 14 95 39
       0.0002655928 3.1582622e-06 0.0039031224 0.00028434466
0001b0 8f 5e 40 b6 6d 83 7a 3c 1d 6a b1 3c ec 13 f9 b8
       -2.866527e-06 0.015290123 0.021657044 -0.00011876956
0001c0 4f ac e6 3d 4b 1c 09 38 b7 f3 cc 3e e2 56 35 3b
       0.11263334 3.2689695e-05 0.4002969 0.0027670194
0001d0 78 1d 94 3d 17 a8 8d 36 01 48 62 3d 0d 19 0e ba
       0.07232183 4.2216957e-06 0.05524445 -0.0005420603
0001e0 11 51 81 3c 97 3f c6 3c d6 b5 2d 3d c6 2c 58 3d
       0.015785726 0.024200244 0.04240974 0.052777074
0001f0 f3 58 2a 3d 80 5c 40 3e 86 c8 3a 3e 9c 56 fe b9
       0.041588735 0.18785286 0.18240556 -0.00048511184
000200 12 e7 0e 3d cb 53 34 36 6c c4 d8 3e 73 c1 98 bb
       0.034888335 2.6870864e-06 0.42337358 -0.004661733
000210 86 fb 31 3e bd ed 83 3a fd 0d 80 3c fa 83 52 3b
       0.17381105 0.0010065358 0.01563167 0.0032122121
000220 f7 59 b9 3c d1 01 07 3d d3 3a 14 bc a9 e9 aa 3c
       0.022625906 0.032960717 -0.009047228 0.020863371
000230 43 92 c1 3b a0 cb b9 3d b1 9d cf 3d ef ee 97 3b
       0.0059073283 0.090720415 0.10137499 0.0046366374
000240 7c 09 a8 3c e8 ba 86 ba 01 a0 4c 3e 12 e8 02 39
       0.020512335 -0.0010279091 0.19982912 0.00012484219
000250 c7 8c 5a 3c 3a 9f fa ba 6f 70 25 3c 5f 3c d6 3b
       0.013339228 -0.001912094 0.010097607 0.0065379585
000260 db 78 95 bb 3c 26 0a bc 24 4e e4 3c 90 94 1e 3c
       -0.0045615262 -0.008431967 0.027869292 0.009678975
000270 e6 30 a6 ba eb 21 59 3d 2d b3 07 3d dd 00 f5 3a
       -0.0012679368 0.053010862 0.03312986 0.0018692274
000280 79 93 18 3b 68 9f 63 ba 36 03 47 3e a8 97 25 3a
       0.002328126 -0.0008683116 0.19434819 0.0006316849
000290 bf 53 eb 3c a2 3a 3e ba ef 46 7a ba 37 f6 c4 3a
       0.028726457 -0.0007256662 -0.0009547313 0.0015026991
0002a0 31 ce 82 bb 8e 0e 1e 3c 86 79 33 3b 13 de 3b 3c
       -0.003991865 0.009647025 0.0027385666 0.011466521
0002b0 f2 2f d4 3b 1f fc d2 3c 38 47 65 3c 67 e4 ac 36
       0.006475442 0.025754986 0.013994031 5.152589e-06
0002c0 d1 f2 67 3e 64 4e d5 39 d6 7a a3 3e 40 f4 cf 3b
       0.22651221 0.0004068493 0.31929654 0.0063462555
0002d0 69 59 5d 3e 40 ee aa 37 af 0e 06 3e 0c 7e bc 3c
       0.21616139 2.0376523e-05 0.13091539 0.023009323
0002e0 19 19 23 3d 07 d4 dd 3d d0 ca 11 3e fe 85 bf 3d
       0.039818857 0.10831457 0.14237523 0.09351729
0002f0 a2 b1 d6 3d 14 d9 64 3e d9 5b 8a 3e a8 65 5e 3b
       0.104830995 0.22348434 0.270232 0.0033935104
000300 ea 6c 37 3d a6 4a a2 3b c8 03 8a 3c a9 4c d9 b9
       0.044781603 0.0049527464 0.016847506 -0.00041446582
000310 32 ba 27 3e 01 05 be ba ee e9 61 3d 07 d5 e6 3b
       0.16379622 -0.0014497341 0.055154733 0.007044438
000320 b6 26 2c 3d cd 81 ce bc f6 66 b8 3c 5d ab 68 3d
       0.042029105 -0.025208378 0.022510033 0.05680405
000330 46 cc d2 ba 26 3c e1 3d 01 71 19 3e ee a6 37 3b
       -0.0016082607 0.109978005 0.14984514 0.0028023082
000340 dd 1b 93 bc 9c 09 86 3a f5 33 9b 3d da 70 20 3b
       -0.017957622 0.0010226252 0.075782694 0.0024481327
000350 37 f1 5e bc 69 c7 e9 3a fb 04 52 bc 79 85 75 3b
       -0.013607315 0.0017835918 -0.01281857 0.003746359
000360 f9 c2 e8 b9 6a cd cd 3a dc 1b 95 3b 29 a9 52 3b
       -0.00044395754 0.0015701477 0.0045504402 0.0032144284
000370 d8 1f 90 3b c1 e4 bc bb e7 fd 6c bc 16 6d ea 39
       0.0043983273 -0.0057645743 -0.014464832 0.00044713233
000380 d6 a3 86 3d bd 88 b4 ba 83 f8 e4 3e 25 5f 15 ba
       0.06574218 -0.0013773661 0.4472085 -0.00056980766
000390 1b 4e eb 3d e7 c4 e4 3a 63 d2 1e 3d d2 a2 d2 3b
       0.11489507 0.0017453701 0.03877486 0.006428101
0003a0 e8 19 b2 3c d3 56 90 3c 11 f9 a7 3c 34 cc c7 3c
       0.021740869 0.017619526 0.020504506 0.024389364
0003b0 38 22 69 3c ab bb c8 3d 4f 1a bc 3d 8c c3 f7 3a
       0.01422935 0.0980142 0.091847055 0.0018902882
0003c0 3d a5 28 3e e1 6d ca b9 11 71 d2 3e 14 c3 bf 3b
       0.16469283 -0.0003861031 0.41101888 0.0058521125
0003d0 57 de 08 3e be 36 b7 37 fa c3 a7 3d b8 40 01 3c
       0.13366066 2.1840791e-05 0.081916764 0.007888965
0003e0 e3 35 c1 3c 22 fb 36 3d 9d f3 ab 3d 5f 9c 63 3d
       0.023585266 0.044673093 0.08396075 0.05556905
0003f0 bc 09 58 3d 98 88 69 3e 29 b3 6b 3e 42 5f b4 3a
       0.05274366 0.22806013 0.23017563 0.0013761299

se_block_event.1.2.bias f4 [64]
000000 9d 65 04 b4 28 cf bf 3c 23 7b ac 3c ca cc 19 3d
       -1.2330425e-07 0.02341421 0.02105481 0.037548818
000010 9f e2 49 3d 88 14 c2 3c 8b 8b b8 37 13 29 dd 3d
       0.04928839 0.02369143 2.1999489e-05 0.1079885
000020 28 86 57 3d 90 17 56 3c 82 ef 52 3c 0f ac 6f 3e
       0.052618176 0.013067141 0.012874486 0.23405479
000030 94 03 15 bd 03 88 d2 bb 79 20 91 3d 7d d3 2f 3e
       -0.036380365 -0.0064249053 0.07086272 0.1717052
000040 08 72 c7 3d a8 ad c9 3c 44 74 6a 3c 9f af 60 3d
       0.097385466 0.024618939 0.014309946 0.054854985
000050 97 57 e9 3e 3a e5 20 bc a5 62 ca 3b ae d6 00 3d
       0.45574638 -0.009820277 0.00617631 0.031454735
000060 39 14 6f 3d ec 0d 09 ba 58 ed ca 3e 37 a8 09 35
       0.058368895 -0.000522821 0.39634204 5.128126e-07
000070 e8 1f 89 bb 30 ac 3f 3d 0d ee 90 3d 25 7e 31 3e
       -0.0041847117 0.04679507 0.070766546 0.17333277
000080 a5 ce 98 bc a0 a2 6e 3d b1 02 3f 3d f3 ca e1 3c
       -0.018653223 0.05826056 0.046633426 0.027562594
000090 c0 ba d9 3c f1 a6 4c 3d dc 45 b6 bd d9 90 64 3d
       0.026578307 0.049963895 -0.08900043 0.0558022
0000a0 e7 c4 08 3e aa 11 a4 3c 42 91 48 3e af 75 94 bd
       0.13356362 0.020027954 0.19586661 -0.07249009
0000b0 fb d0 06 3d d6 5b 17 3d 07 03 8f 3c 82 f1 1d 3d
       0.032914143 0.036952816 0.017457498 0.038560398
0000c0 91 4e a8 3d 63 84 4d 3d d0 de ab 3d 94 70 77 3d
       0.0821811 0.050175082 0.083921075 0.060410097
0000d0 3a 4e 14 bb a6 29 aa 3d 4b c4 84 3d c6 b3 bf 3c
       -0.0022629634 0.08308725 0.064827524 0.023401152
0000e0 b4 39 bf 3c 70 2c 5d 3d 59 94 a0 3c 09 ae 3c 3d
       0.023342945 0.053997457 0.019601988 0.04606441
0000f0 da 5a b1 3d 30 a5 8d 3e d4 12 d5 3d 43 06 03 3d
       0.08659907 0.2766509 0.10403982 0.031988394

se_block_event.2.0.weight f4 [16, 64]
000000 98 b4 3d b8 d8 1b 2d bc 9f 6a 88 3b be 63 3c b9
       -4.5229302e-05 -0.0105657205 0.004163101 -0.00017966234
000010 d4 31 01 3d c0 8c 0a 3b 3b e3 f9 ba d7 d8 93 bb
       0.03154166 0.0021141022 -0.0019064912 -0.0045119333
000020 e2 2c 0c 3c 18 63 d3 b8 25 22 27 3b fe 9f c4 bb
       0.008555623 -0.00010079722 0.002550253 -0.006000518
000030 f6 15 58 bb 6f 47 60 bb 49 9b 99 3c 2f c9 09 bc
       -0.0032972074 -0.0034222265 0.018750804 -0.008409782
000040 8f 87 12 bb b5 3a c1 3c b3 1b b7 bb 86 1f cf 3a
       -0.0022358631 0.023587564 -0.005588019 0.0015802241
000050 82 06 38 bc fd a2 bf 3c 89 da 97 3b 19 90 8d 3c
       -0.01123202 0.023393149 0.0046342057 0.017280625
000060 a1 6f da 3c bc a6 c7 bb 02 c8 e6 bc 6d 16 b4 b7
       0.026664557 -0.0060928743 -0.028171543 -2.1468115e-05
000070 35 6d b6 bb 2a 98 cb 3b 26 6e 31 bb f0 60 87 bc
       -0.0055672177 0.0062132077 -0.002707371 -0.016525716
000080 97 b7 0f bb 05 11 8d 3c 62 75 bf 3a ce e0 21 3c
       -0.0021929496 0.01722003 0.0014607126 0.009880258
000090 75 3b 14 bc b9 0c 7f 3c 8c fe 39 ba b9 be 90 3c
       -0.009047379 0.015566998 -0.00070951204 0.017669069
0000a0 94 41 63 bc 68 21 87 bb 5a d9 03 bb 68 af 8c 3a
       -0.0138706155 -0.0041238554 -0.0020118565 0.0010733427
0000b0 51 12 84 3b 8f bb 8e 3b 7a d5 3e bb dd 62 0a 3b
       0.004030504 0.004355855 -0.0029118941 0.0021116056
0000c0 b2 eb 22 3c 6c 7b 18 3c 78 dd c2 3c a3 32 0a 3d
       0.009943889 0.00930677 0.023787245 0.033739697
0000d0 82 4e 9b ba 18 7b 4c 3c 2e 82 75 ba f0 dd 22 ba
       -0.0011848959 0.01248052 -0.00093654066 -0.0006212881
0000e0 db b9 0c bb f2 b9 04 bc 68 5d 5e 3c 32 a7 e7 3b
       -0.0021473083 -0.008100973 0.0135720745 0.007069492
0000f0 57 ed 8d 3b 2f 5d 6f 3c 10 a4 0d 3c 96 0b f1 ba
       0.0043312716 0.014609619 0.008645073 -0.0018390294
000100 4e b7 64 39 e8 ca 96 3c 6b a3 89 3d 1f 78 85 bc
       0.00021812061 0.0184073 0.06720623 -0.01629263
000110 37 ef f5 3d db 21 02 3d f2 73 09 3d 68 d2 a1 3c
       0.12008517 0.03177057 0.03355784 0.01975365
000120 c2 ed 3e 3e 62 88 30 3d 4e 1a 68 3d 57 a1 41 bc
       0.18645385 0.043098815 0.05666571 -0.011818252
000130 3c d1 7d 3d 0c 88 7c 3c d0 d1 41 3d f2 c7 f4 3a
       0.06196712 0.0154132955 0.047319233 0.0018675311
000140 a8 40 9b bd 13 09 ba 3d 19 97 92 3d e3 42 e0 bd
       -0.075806916 0.09083762 0.07157726 -0.10950258
000150 83 96 e5 bc cc eb 15 3e 7c e1 d3 3c b8 78 a6 3d
       -0.028025871 0.1464073 0.025864355 0.08128494
000160 c3 59 22 3e b2 99 7e bc 37 cb a6 be 52 11 36 38
       0.15854554 -0.0155395735 -0.32576916 4.3408312e-05
000170 73 6d ad bb c8 93 4c 3e c4 f6 67 3d 40 cc 20 3d
       -0.0052925884 0.19978249 0.05663182 0.039257288
000180 07 60 e3 3d f5 69 12 3e 09 9e af bd c8 5e c1 3c
       0.111023 0.14298232 -0.08575065 0.023604766
000190 64 52 d1 bc d0 ac c0 3d 75 5f cf b9 72 f2 c3 3d
       -0.025551982 0.09407961 -0.00039553238 0.09567727
0001a0 14 9b 0d be ae 15 82 3d f0 4a b9 3c a5 be 3d 3e
       -0.13828689 0.06351791 0.02261874 0.18529756
0001b0 27 63 4c 3e cd bc 8f bc 26 48 45 3d 24 b6 f2 3d
       0.19959699 -0.017546082 0.04816451 0.11851147
0001c0 64 a2 75 3c 59 f7 b4 bd 50 0d 66 bb 91 18 39 3e
       0.01499233 -0.0883624 -0.003510315 0.18075778
0001d0 92 0e 54 bb dd 8c ec 3d ea 75 02 3e 25 54 e0 3d
       -0.0032357317 0.11550305 0.12740293 0.10953549
0001e0 3c b8 04 3e fe a7 76 3d fe e0 f4 3d 3b ea 84 bc
       0.12960905 0.060218804 0.11956976 -0.016224971
0001f0 a7 41 0d 3e 25 db 2d bb 89 97 e9 bd 3f bc 94 3d
       0.13794576 -0.0026528325 -0.11405856 0.072624676
000200 df af 87 ba 37 31 a2 bb 9d 31 92 ba 68 68 f6 3b
       -0.0010352096 -0.0049497145 -0.0011153702 0.0075197704
000210 24 42 1c 3d 55 17 30 3c ba 74 12 3b 7e 77 9e 3c
       0.038149014 0.01074775 0.0022347406 0.019344088
000220 70 df 88 3c ef 41 8a 3b b4 83 48 3c 31 50 cb 3a
       0.016708106 0.0042192857 0.012238432 0.001551157
000230 c3 46 e4 bb 8f c7 01 3b 2c c7 52 3d 54 56 b3 3c
       -0.0069664433 0.0019802784 0.051459476 0.02189175
000240 bd f5 38 3d 19 96 78 3d 3f b5 ab 3c ac 80 3b bc
       0.04515623 0.06069002 0.020960448 -0.011444252
000250 5a 82 98 bc e3 51 f3 3c da 35 90 3c 7f 89 15 3d
       -0.018616844 0.029702133 0.017603803 0.03650808
000260 25 74 92 3d d3 8b 61 ba 94 0f fb bd 42 0a 38 b6
       0.07151059 -0.0008603904 -0.12258831 -2.7424107e-06
000270 5b d3 95 3b 05 70 1f 3d 00 0a 56 3c 1f 6d 09 bc
       0.0045723147 0.03892519 0.013063908 -0.008387833
000280 14 5c 89 3c d0 45 6e 3d c9 61 30 bc 2a 0a 1b 3c
       0.01676754 0.058172047 -0.010765501 0.0094628725
000290 3e 4d 85 bb 08 0d ff 3c 49 23 6d 3c 4d 5f 00 3d
       -0.004068046 0.031134143 0.014473745 0.031340886
0002a0 60 31 1d bd 68 68 e0 3c 45 1e 38 3c 85 93 83 3c
       -0.038377166 0.027393535 0.011237686 0.016061554
0002b0 3c 87 8d 3c a6 a1 87 3b 43 31 37 bb 3e b9 91 b9
       0.017276399 0.004139143 -0.0027952946 -0.0002779457
0002c0 73 5e 05 3d 34 2f da 3c fe 1f 89 3d 19 16 89 3d
       0.032560777 0.026633836 0.06695555 0.06693668
0002d0 fa 95 37 38 fe 7e 5d 3d 10 a0 14 3d e3 c1 f7 3a
       4.3770277e-05 0.054076187 0.03628546 0.0018902387
0002e0 a0 ec 16 3a 0b 7c 31 3b e9 43 57 3d aa ca 95 3c
       0.0005757306 0.0027081992 0.052555 0.018285114
0002f0 1b fb d2 3c ad f6 02 3d a8 5f dc 3b 98 31 6b bc
       0.025754502 0.03197353 0.0067252703 -0.014355086
000300 4b e4 bc b7 2f 80 34 bb 28 52 30 3b f7 62 0c bb
       -2.2517654e-05 -0.0027542224 0.0026904438 -0.0021421292
000310 e7 d5 6d 3c 78 ef d2 3a 3e ce 06 bb 1e cc ca 3b
       0.01451633 0.0016093096 -0.0020569707 0.0061888834
000320 37 8c a1 bb 1a b0 bd ba 34 13 05 3b be fa be 3b
       -0.004930045 -0.0014472038 0.0020305635 0.0058282306
000330 58 41 1f 3b 02 23 8d 3a 11 d9 13 3c 33 bf 05 3b
       0.0024300423 0.001076788 0.009023921 0.0020408153
000340 ea f0 50 3b d3 c3 88 3c b3 6c 81 bb 30 91 d4 bb
       0.0031881877 0.016694939 -0.0039497255 -0.0064870343
000350 c9 d9 dd bb bc ce 5a 3c c1 f3 85 3b dc b9 4f 3c
       -0.006770347 0.013354953 0.0040878956 0.01267859
000360 02 87 61 3c e4 a5 70 39 4c 50 3a bb 7b de ab b7
       0.0137650985 0.00022949983 -0.0028429208 -2.0488389e-05
000370 7d 3d 77 bb e9 5d e2 b9 23 94 8a 3a 1f 29 0d bb
       -0.003772586 -0.00043176048 0.0010572713 -0.0021539403
000380 3f 1d e6 ba a9 a1 15 3c db 4b 14 bb 85 c0 6a 3b
       -0.0017556323 0.009132781 -0.0022628221 0.0035820317
000390 3a 1e fb bb c5 b6 b8 bb 3a e1 61 38 60 1e 80 3c
       -0.0076635154 -0.005637022 5.385394e-05 0.015639484
0003a0 96 f7 0c 3c 72 2b 97 3b f7 20 6d 3b e8 d5 fb 3a
       0.008603951 0.0046133334 0.0036182979 0.0019213529
0003b0 16 fd 5b bb 1b ee 83 3b 12 28 44 bb 99 0c 96 3a
       -0.00335676 0.004026187 -0.002993111 0.0011447846
0003c0 44 4b 29 3c 5e 35 8f 3b 3a 9d 87 3c 1e cf b8 3c
       0.010332886 0.0043703755 0.016554464 0.022559699
0003d0 89 b8 86 3a 31 f4 84 3b 36 ef 0d 3b 30 ab 81 bb
       0.0010278384 0.00405743 0.0021657473 -0.0039571747
0003e0 5c 64 f9 ba fd f3 c3 ba bf 60 5d 3b fb 83 fc b9
       -0.0019027102 -0.0014950034 0.003377959 -0.0004816352
0003f0 89 31 6d bb 8b b5 bd 3b ee ea 39 3b 81 df 81 bb
       -0.0036192855 0.005789464 0.0028368789 -0.0039634113

se_block_event.2.0.bias f4 [16]
000000 5f 03 64 bd 30 14 b0 be 93 7f 51 be 98 57 3d bb
       -0.055667277 -0.34390402 -0.20458822 -0.0028891321
000010 cb 7c f8 bc 9d b1 0e bb 34 68 8c be 73 a0 3e be
       -0.030332943 -0.0021773346 -0.2742325 -0.18615894
000020 9e 03 24 be b8 21 2a 3f 5a 85 4d be 96 28 8d be
       -0.16017005 0.664577 -0.20070401 -0.27570027
000030 ae 1f a6 bc 83 c7 f5 bc a7 07 98 be 27 9c bc be
       -0.020278778 -0.030002361 -0.29693338 -0.36837885
