parameters/deephit_model_2D_CNN_1014_ver2.pth (torch, 193074 bytes, 45 tensors)

se_block.0.weight f4 [4, 17]
00000000: 323e a2b9 2777 0933 e448 b9b9 0b45 e4b8
00000010: cb2f 8eb9 cb2f 8eb9 154b f2b6 d5b3 02b9
00000020: 3d36 1cb9 5b47 82b8 f7ca 0cb8 70c1 33b6
00000030: 0b45 4ab9 fee5 dcb9 50cd 40b8 c820 b2b9
00000040: 217f 1932 4702 8fb8 700a efb6 1426 08b9
00000050: 5ddb ab37 7269 f0b7 7269 f0b7 794d 90b6
00000060: 38ac e0b5 b314 2d37 1138 1437 afa6 43b9
00000070: d7a3 d3b6 e9e8 ba37 0f51 d0b8 15f2 9a37
00000080: de60 a6b4 04e8 92ae cd0d b03b 0a3f 863c
00000090: c72a 673e 3ce3 023c 6c32 a33d 9741 85bd
000000a0: 661f 7e3d 53bd 733d 4e71 b03c 92e1 3dbf
000000b0: 398f 0c3d e1f5 d43d 2ad1 763e b584 09bc
000000c0: c582 893a b0e3 55be 3842 cb3b 09e3 303e
000000d0: 091c 013f f627 823e 6b89 9b3d 9225 3abd
000000e0: 7891 d03d 4ba0 203f 40f1 c53c 030f aa3d
000000f0: cf7a f93d 72ab f83d 0cbd 3c3d d2ff 0f3f
00000100: 5792 483d e354 c73c 6f79 fd3d 0967 f6bc
-0.00030945387 3.2006167e-08 -0.00035340257 -0.000108847475 -0.0002711996 -0.0002711996 -7.2209027e-06 -0.00012464759
-0.00014897525 -6.212174e-05 -3.3567627e-05 -2.6785674e-06 -0.00019289942 -0.00042133027 -4.596758e-05 -0.0003397523
8.934678e-09 -6.8191956e-05 -7.12397e-06 -0.00012984156 2.0486938e-05 -2.8659331e-05 -2.8659331e-05 -4.3005534e-06
-1.6739423e-06 1.0316423e-05 8.834541e-06 -0.00018658744 -6.3073635e-06 2.2281385e-05 -9.933311e-05 1.8470959e-05
-3.099039e-07 -6.6805256e-11 0.005372739 0.016387481 0.22574912 0.007988747 0.079686016 -0.06506651
0.062041663 0.059506726 0.021538403 -0.7417232 0.034316275 0.1039846 0.24103227 -0.008393456
0.0010491243 -0.20887637 0.0062029622 0.17274107 0.50433403 0.25421113 0.0759457 -0.045445986
0.10183996 0.6274459 0.024162889 0.083036445 0.12181627 0.121420756 0.046078727 0.56249726
0.048967686 0.02433247 0.12376677 -0.030078428

se_block.0.bias f4 [4]
00000000: aab3 85b4 7c02 efb6 88c7 293c 0818 0cbf
-2.4903903e-07 -7.1230443e-06 0.010362513 -0.5472417

se_block.2.weight f4 [17, 4]
00000000: 634c 01ba 8e9d 9439 9094 eabd 4b00 dd3c
00000010: 3a8b f42f 371f a1af 66e0 d83b f81d 1e3e
00000020: 553c 8c39 f852 7232 5895 6cbe 4bbc 7d3e
00000030: 0929 46b9 1b9e 3cb1 14f7 0c3d d3f1 21be
00000040: 85db 94b9 aef8 71b2 08b2 4e3d 4fcd 5ebe
00000050: 123b dbb9 fe29 26b0 a69e 05bd 051e 45be
00000060: 8f97 42ac 201e 0a2e 5ad8 183d feac c13e
00000070: d978 68b8 ae84 c130 4d9f 733d 8b5a 3abe
00000080: 25aa 92b9 7d17 0633 7ee3 e73a b899 28be
00000090: 481e 22b9 059c 8db3 201a 2b3f b526 06be
000000a0: af68 8c38 8d45 96b9 f35c 85bd a900 0fbe
000000b0: 2cbc 9c37 ddb9 4ab1 da6c 1b3d 121e f1bd
000000c0: 4453 95b0 66ee 6baf e6b0 9b3d e8bc c03e
000000d0: d1c0 91b9 b1f1 fdb8 cfc4 8abd 39a6 2bbe
000000e0: b86e b8b8 3737 5931 bfb5 5a38 7de8 4cbe
000000f0: b766 20ba 7b7c 59b9 02b3 69bd bff0 17be
00000100: f4e7 022b 86f7 83ae 6542 5abc 3b38 1abe
-0.0004932342 0.00028346147 -0.11454117 0.026977679 4.4482268e-10 -2.930791e-10 0.0066185473 0.1544112
0.00026747832 1.4105119e-08 -0.23103845 0.2477886 -0.00018898038 -2.7447473e-09 0.03441532 -0.15814905
-0.00028392315 -1.40845895e-08 0.050462753 -0.21758007 -0.00041814946 -6.045012e-10 -0.032622002 -0.19249733
-2.765319e-12 3.1404324e-11 0.037315704 0.37827295 -5.542566e-05 1.4080308e-09 0.059478093 -0.18198602
-0.00027974058 3.122067e-08 0.0017691699 -0.16464889 -0.00015460805 -6.594204e-08 0.6683674 -0.13100703
6.695219e-05 -0.0002866205 -0.06511869 -0.13965096 1.8684274e-05 -2.950052e-09 0.037945606 -0.117733136
-1.0864842e-09 -2.1457822e-10 0.076021 0.37644124 -0.00027800215 -0.000121089986 -0.067758195 -0.16762628
-8.794427e-05 3.1609042e-09 5.2144514e-05 -0.20010562 -0.00061188213 -0.00020741105 -0.05705548 -0.14837931
4.650718e-13 -6.001159e-11 -0.013321494 -0.15060513

se_block.2.bias f4 [17]
00000000: 200d 20bb d5fe 71bc 4a5f 313e 3176 ec3e
00000010: d036 113d 1bf6 9a3e 9841 af3c a900 613d
00000020: 19ae 3e3e a5eb ac3e c52d 6e3d d439 563e
00000030: 26b4 ba3c b2ad d43d 7339 033e 973a 483e
00000040: c8fc d2bb
-0.0024421886 -0.014770229 0.17321506 0.46183923 0.035452664 0.3026589 0.021393582 0.05493227
0.186211 0.33773533 0.058149118 0.20920497 0.02279098 0.10384692 0.12814884 0.195536
-0.0064388253

se_block_event.0.0.weight f4 [16, 64]
00000000: e3d7 e43d 5441 223e 6c91 573d 9da1 f53b
00000010: 6696 c43c 1a5a 3f3d 48f4 013e cdf2 253c
00000020: 4960 9b3b cadc 2c3e 1876 fa3d 2e62 1b3c
00000030: a7c2 b33d 94d9 ca3c 5dd2 193c 934c efbd
00000040: 5f1d 913d 2347 f83d 0383 e93c 426a 123d
00000050: fdbf 473d 3058 a53b 47b2 f83b 55c2 063e
00000060: 2bba 98bd 6bb8 353c 5295 203e ae1c b33d
00000070: 1efd 103d 1bf8 6e3c 0210 b03b 4219 c3bc
00000080: 9c34 d03b 94f1 113e 5738 163e 10c4 c43d
00000090: d36e 8e3c a4fc 363e 35b7 e13c 6625 f83c
000000a0: e64f 073d 8219 103e bed1 793d aab8 053d
000000b0: 754c eb3c 56f3 8e3b 0777 cf3d 0f50 0f3e
000000c0: 7bad c43c 5768 e2bc 6940 7f3d 9caf 433c
000000d0: 81f5 fa3c 7503 243e 35ba 8d3c 764e 7f3b
000000e0: 7bf3 973b cdda 5c3d c99e ee3b 45b2 313d
000000f0: 1771 adbb 6c9d ba3c 13c3 f83c 9e4f 6d3c
00000100: 9cfe 8bbd c670 e5bd a382 b3bc 2d51 61bc
00000110: 8588 a63d 50e1 7fbc 52d3 71bd 1ad9 673e
00000120: 3bc3 88bc 1fcc 01be b608 7cbd 10d5 87bc
00000130: 13cd 63be 143d a939 2f70 73bc 5e1c 933e
00000140: 7730 8cbe 0e9b 36bd 53e3 db3d cc9c 6cbc
00000150: 9b86 1dbd 5963 0f3d 5982 71bc f6dd 88bd
00000160: 3ae4 823e ff35 4ebd ea20 cebd eb4b 91bd
00000170: 9f2c fe3b 2dd3 2abb 27b1 333e ca45 703e
00000180: 7475 723b 388d 99bd e14b adbd 82ee 6abd
00000190: 6ca0 6c3c 9846 12be c510 a93b 9201 0a3e
000001a0: ccd8 213d 3453 b5bd 3bd0 c3bc 49f8 44bc
000001b0: dbcf 333e a56c 0d3b 7815 49bd 349a b9bd
000001c0: 719e 923c 940c 84be d0b4 8a3c 6676 62bb
000001d0: c07e f4ba c9d9 55bd 2907 9abc 7508 643d
000001e0: f653 65bc f63a 28bd 738b 34bc 9681 99bc
000001f0: 6184 093e 81f5 13bd cf78 55bb 06d6 2e3c
00000200: c542 473c 11e5 64bc 071b 02bd ef9a 5abc
00000210: c4ff 1bbc e1ed 403c 5f45 0ebd 12d6 5f3d
00000220: df36 37bc b039 79bd 165d 04bd a508 adbc
00000230: 3190 12be bad9 27bc 2e36 b0bc 70db 94bd
00000240: a2c5 7dbd d118 d8bc 4570 943d cac9 d039
00000250: 3a7e 93bc 5aa9 a4bd efee a0bc 3cab 22bc
00000260: 5b0b 173d 2982 68bb 5cf0 0c3b d54a a03c
00000270: bc0c 3fbd d6c8 c9bc 2e2c 723c 6905 5c3c
00000280: 687e 443b 9f92 7ebd 9f9f 50bd e84f b33b
00000290: fbdb b138 6bb7 1ebe aaa4 883c 3f2f 4d3c
000002a0: 950a b03b 7c31 debc c0f6 c2bb dd59 23be
000002b0: fecc 833d bf30 343c 9de7 5b3c d71f 1f3c
000002c0: 0329 f9bc fce5 973e b098 393b 317e 8fbc
000002d0: 91cb 85bc e9e3 293c e60d c8bc 8c87 49bd
000002e0: 3cec 65bc a00b 17ba 4da8 e8bb 8e38 623b
000002f0: 6623 4cbc 9f1b 44bd c069 0abd f173 b8bc
00000300: e98a c4ba 3419 97ba 7336 04ba 1cca 293a
00000310: 7dbd 89ba 9cf1 283a aeb4 0e3a 1bb0 153b
00000320: 6333 3d3b a0e4 ab3a d81c 8239 7c59 8139
00000330: f64b 63ba edfd 22ba 9c51 043b f7a7 133b
00000340: 54f2 cf3a 366c 5fb9 9933 c4ba 40e0 70b9
00000350: c0da d73a 0e88 223b c174 1e3a 9225 1dba
00000360: e09d 5c3a 96b5 983a 8041 1aba 1f1a d1b9
00000370: bdce f9b8 987a 123a 2c18 0cba 5b6c a037
00000380: ec12 f6b9 9e4b bf3a d923 f036 3dbc 8dba
00000390: 1dfe 64b9 360e da3a 2eeb aaba 4f05 49ba
000003a0: d2bd 683a 7711 c2ba 0dc7 30ba 4273 033b
000003b0: 9c4f 2abb e45f 8f3a b12d 49b9 9d4b 18ba
000003c0: a042 1039 3415 313b 0f5d 16ba 0dbc 8f3a
000003d0: eff0 6cba 1e94 bfb9 ed50 4eb8 ac31 8f3a
000003e0: df1d ca3a ebdd adba 2871 213b c1a4 0db9
000003f0: c9a6 1dba 0bd8 543a b13c 4f3a 0b13 81ba
0.111739896 0.15845233 0.05262892 0.0074960724 0.023997497 0.046716787 0.12690842 0.010128689
0.0047417027 0.168811 0.12229556 0.009483857 0.08777361 0.024761952 0.009388533 -0.11684527
0.0708568 0.12122943 0.028504854 0.035745867 0.04876708 0.005045913 0.0075896117 0.1316007
-0.07457384 0.011091332 0.15681961 0.087457046 0.03539764 0.01458552 0.005373002 -0.023815755
0.006353928 0.14252311 0.1466993 0.096077085 0.01738683 0.17869812 0.02755318 0.03029127
0.03303518 0.1407223 0.06099104 0.032646812 0.028722981 0.004362504 0.101301245 0.13995384
0.024008503 -0.027637644 0.062317286 0.011943724 0.030634644 0.16016944 0.017300704 0.0038956678
0.0046371794 0.053919602 0.0072821123 0.0433829 -0.0052930224 0.022780143 0.030366456 0.014484314
-0.06835672 -0.112031505 -0.021912878 -0.013752264 0.08131508 -0.0156176835 -0.05903942 0.22641411
-0.016694656 -0.12675522 -0.061531745 -0.016581088 -0.22246198 0.000322797 -0.01485829 0.2873258
-0.27380726 -0.044581465 0.10736718 -0.01444168 -0.038458448 0.035006855 -0.01474055 -0.06682961
0.25564748 -0.050344463 -0.100648716 -0.07094558 0.007756784 -0.0026065812 0.17548047 0.23464122
0.0036996277 -0.074976385 -0.084617384 -0.057356365 0.014442544 -0.14284742 0.00515947 0.13477162
0.039513394 -0.0885376 -0.023903003 -0.012022086 0.1755976 0.002157965 -0.04909274 -0.09062615
0.017897816 -0.25790846 0.016931921 -0.0034555434 -0.0018653497 -0.05220965 -0.018802242 0.055672128
-0.013997069 -0.041071855 -0.011019575 -0.01873855 0.13429405 -0.036122803 -0.0032573228 0.010671144
0.012161915 -0.013970629 -0.031764057 -0.013342603 -0.0095214285 0.011775465 -0.034734126 0.054647513
-0.011182516 -0.06084603 -0.032315336 -0.021122286 -0.14312817 -0.010244781 -0.02151021 -0.07268417
-0.061956055 -0.02637902 0.07247976 0.00039823196 -0.018004525 -0.08040114 -0.019645182 -0.009928521
0.036876064 -0.0035477972 0.002150557 0.019566933 -0.046643004 -0.024631899 0.014781041 0.013429024
0.002998257 -0.062151548 -0.050933477 0.005472172 8.480992e-05 -0.15499656 0.01668008 0.012523471
0.005372355 -0.027123205 -0.005949825 -0.15952249 0.064355835 0.01099795 0.01342192 0.009712181
-0.030415064 0.29667652 0.0028319769 -0.017516227 -0.01633242 0.010369279 -0.02442069 -0.049201533
-0.014033373 -0.0005761925 -0.007100141 0.0034518573 -0.0124596115 -0.047877904 -0.033792257 -0.022516223
-0.0014995012 -0.0011527897 -0.0005043514 0.0006476955 -0.0010508742 0.0006444694 0.00054437935 0.0022840563
0.002886974 0.00131144 0.00024817022 0.00024671468 -0.0008670682 -0.00062176475 0.0020190245 0.0022530535
0.0015865066 -0.00021307249 -0.001496899 -0.00022971723 0.0016468391 0.0024800333 0.00060446194 -0.0005994673
0.0008415859 0.0011650797 -0.0005884394 -0.00039883048 -0.00011911753 0.0005587726 -0.0005344178 1.9123943e-05
-0.00046934874 0.0014594679 7.1567306e-06 -0.0010813546 -0.00021838439 0.0016636315 -0.001304006 -0.00076683325
0.0008878383 -0.001480623 -0.0006743528 0.0020057713 -0.0025987392 0.0010938612 -0.00019185875 -0.0005809607
0.0001375773 0.0027020695 -0.0005735913 0.0010966078 -0.00090385875 -0.00036540715 -4.9189595e-05 0.0010924838
0.0015420279 -0.0013264989 0.0024634097 -0.00013508183 -0.00060139276 0.0008119351 0.0007905467 -0.0009847594

se_block_event.0.0.bias f4 [16]
00000000: 794a 59bd 1456 8e3e 915c 723c 5714 9539
00000010: b09b 573d bbb9 cd3d daa7 e5ba 14ea 11b9
00000020: 1e28 e1ba fb8d 713d 9f55 643e 5e12 a8bb
00000030: 1855 5a37 b4a3 83bc 4640 10be 569a cdbd
-0.05304954 0.27800047 0.014792577 0.0002843465 0.05263871 0.10045191 -0.0017521337 -0.00013915478
-0.0017178094 0.058973294 0.22298287 -0.0051291427 1.3013625e-05 -0.01606927 -0.14087018 -0.10039203

se_block_event.0.2.weight f4 [64, 16]
00000000: d36d 07bd 0288 cabc dd0c 6d3c b2fe 38ba
00000010: 941d b6bc 476d 4f3c 83b2 5bba f865 d037
00000020: 06ad 37ba d9d2 5fbc 2d95 d1bc 4aea 163b
00000030: c576 37b4 5a97 153b bd38 0cbd 41f8 22bc
00000040: 6b7e 1e3d 9ae2 da3d 891b 2d3d 2fc1 243a
00000050: 6674 2e3d 7797 863c b998 e23a ce77 6538
00000060: 058f ae3a f645 c43d 28da d93d 1ac4 df3a
00000070: 81c0 1db5 aa8c c03a 99f4 0e3d 5d84 2a3d
00000080: cf93 7b3c f3f1 5e3c 888f 5c3d 9635 ddba
00000090: 7dae b33b 7170 153c e0c7 f239 4452 9e38
000000a0: bf4f 30ba c898 e23d 335a d73c 0e8f b53a
000000b0: 7905 f2b2 61b6 153a bb97 f13c f4a5 133e
000000c0: d8b3 ebbb cfdd eb3b cf99 66bb 2c6a cb3a
000000d0: 8d10 843b a29f 7a39 2dfc 6737 574e e6b8
000000e0: 3dbf 8b39 bfd9 f83c 862d 0737 7a07 53b9
000000f0: 6c87 0134 523c 5bb9 e4e6 13bc 05ce df3c
00000100: 1b59 123e 9093 23be f2c8 1d3b a347 d1ba
00000110: b91f 3a3c a9d6 21be 89ad 6a3a b891 3d39
00000120: 4288 3dba 2fa4 8e3c 0edd 05be dbba ac3b
00000130: 00d8 4e36 071d a13a a917 453e 0c01 0c3c
00000140: 6fad 4abd 7c32 9bbc 62cf 9b3c 8b28 93b9
00000150: 4a2f a9bc 0ba4 433c 033f 74b9 5fc7 eeb5
00000160: 133a 44ba f458 29bd ddbc e6bc ccf9 b23a
00000170: c2b2 f4b3 ed93 cd37 868d 5dbd 10fb 90bc
00000180: efdf fb3c 3fa9 903d e449 f73b 7210 b9ba
00000190: 3669 1e3d cd92 bb3c e74a 7939 be68 01b9
000001a0: a288 20b7 f2ba 513d b067 9d3d 45a2 7c3a
000001b0: 78ec 27b4 4992 163a 5b13 0f3d 3dd1 34bd
000001c0: 05bb 483e 83e6 12be e072 c4bc b558 383a
000001d0: b0ab 8f3d 24a2 dbbd 0b76 1f3b 4ec4 5bb8
000001e0: 432b b73a 9fe1 5a3e 442c 3cbe bc36 e339
000001f0: 0f60 80b8 6ad8 e3bb a631 673e 947f d23c
00000200: 0796 15bc 8ba1 c3bb 5d6c ff3a 848c 1839
00000210: 7589 123b 1d50 2c3a 277e 8837 6123 b0b7
00000220: e9ca 5ab9 87ff ae3c 8cfe e237 aab5 c6b9
00000230: 7ae2 3734 857b 3d3a 7327 78bc b8e8 163d
00000240: fbc1 bf3d 9f6c c13d 7cd9 f2bb 1633 f7ba
00000250: f8c1 3e3d 8302 343c 1aef e73a 01ff 52b7
00000260: 2054 d839 99f5 e13d 9ad6 683d 2b75 0e3b
00000270: be18 78b5 f279 863b ac44 003e 089d 87bc
00000280: d127 313c 4f35 453d ae62 26bc b277 d2ba
00000290: 1129 893c 6ee1 973c 9d7d a739 1ef1 59b8
000002a0: b23f 5cb8 4332 323c 72e8 593d a2f6 8939
000002b0: 9502 1fb3 ef67 5d3a 0557 2f3c c292 e2bc
000002c0: 3a13 13bb 1db2 a9ba 7836 b13b b7f4 d337
000002d0: ee0c 2ebb 595c 423a b76d 0c37 8a2a 0c37
000002e0: dd83 de38 3e21 063d 6321 c13b 47e1 92b9
000002f0: ce8a 9cb3 5da9 10b8 220d 6ebb b1c1 003d
00000300: 5f3d 3d3c 1581 ae3c efe9 a1bc 4a9c fab8
00000310: b599 f13c bdea 823b 7ac1 5939 aeac 34b9
00000320: 49b0 443a b105 72bd 9c51 4d3d ac3e da39
00000330: 89ab 24b4 298c a338 fcb8 a43c 0db4 3cbe
00000340: 28ad 7dbc 1130 7fbc bbc7 2c3d 145f 163a
00000350: efb6 5b3c ef82 6cbc 522c 8eba 9193 ba38
00000360: 84f5 48ba 828e dfbb d3aa b1bc 0853 6b3b
00000370: 0128 8137 327f d23b 16a2 cbbc 8ad5 47bc
00000380: 6b4f 0fbc 9672 b93a 7766 3a3b ca0b 903a
00000390: 17b2 403b df3e 653a 1b2d 2a36 f544 1eb7
000003a0: e913 2ab9 29d9 3f3d c5ac 8f39 79b3 29b9
000003b0: e620 9733 6859 3c39 1226 81bc 7ab9 b63c
000003c0: ab80 95bd 0aa3 b53e d2a6 b0bd 676a e3ba
000003d0: ee17 4c3d fca0 14bb 8ebc 4eb9 faf0 393a
000003e0: 630c e2b9 82b8 48be 10b2 1a3d 19ba 1339
000003f0: c8ae 91b6 0cea 92ba 7286 88bd 1c88 c1be
-0.03306372 -0.024723057 0.014468399 -0.00070569955 -0.0222309 0.012660331 -0.00083807873 2.4843015e-05
-0.00070066785 -0.01366111 -0.025583828 0.002302783 -1.7086411e-07 0.0022825808 -0.034233797 -0.009946884
0.03869478 0.10687752 0.042262588 0.000628489 0.042591475 0.016429646 0.0017287947 5.470943e-05
0.001331777 0.095836565 0.10637313 0.0017071993 -5.876719e-07 0.0014690359 0.034901235 0.041630138
0.0153550645 0.01360749 0.05384782 -0.0016876932 0.005483447 0.009121046 0.00046306755 7.54935e-05
-0.000672575 0.11064297 0.026288128 0.0013851838 -2.8174997e-08 0.00057110755 0.029491296 0.14418775
-0.00719307 0.0071980725 -0.0035186892 0.0015519313 0.0040302933 0.00023901326 1.3827387e-05 -0.000109818466
0.0002665463 0.030377267 8.057226e-06 -0.00020125313 1.2063327e-07 -0.00020907939 -0.009027217 0.027319917
0.14291804 -0.1597426 0.0024076072 -0.0015966784 0.011360102 -0.15804543 0.00089522504 0.00018078729
-0.0007230082 0.017412273 -0.13072607 0.0052712983 3.082212e-06 0.0012291976 0.19247307 0.0085451715
-0.049481805 -0.018944971 0.019019786 -0.00028068232 -0.020652432 0.011940966 -0.00023293127 -1.7790406e-06
-0.00074854604 -0.041344598 -0.028166229 0.0013654768 -1.1394651e-07 2.4506788e-05 -0.054090045 -0.01769784
0.030746428 0.07063531 0.0075466502 -0.0014119281 0.038674556 0.022897149 0.00023774394 -0.00012341418
-9.5685555e-06 0.051203676 0.076857924 0.0009637217 -1.5639114e-07 0.0005743844 0.03493057 -0.044144858
0.19602592 -0.14345746 -0.023980558 0.00070322613 0.07015169 -0.10724285 0.0024331834 -5.239649e-05
0.0013974685 0.2137513 -0.18376261 0.00043337594 -6.121408e-05 -0.006953289 0.22577533 0.0256956
-0.009130008 -0.005970185 0.0019487251 0.00014548196 0.0022359763 0.0006573217 1.6271208e-05 -2.099731e-05
-0.0002086569 0.02136208 2.7059832e-05 -0.00037900853 1.7125595e-07 0.00072281837 -0.015146124 0.03684303
0.09363171 0.09444546 -0.00741118 -0.0018859829 0.0465717 0.010986927 0.0017695159 -1.2576348e-05
0.00041261408 0.11033172 0.056845285 0.0021737318 -9.2423204e-07 0.0041038925 0.12526196 -0.01655437
0.010812716 0.048146542 -0.010155363 -0.00160574 0.016743215 0.01854011 0.0003194631 -5.196139e-05
-5.251141e-05 0.010876241 0.053200193 0.00026314432 -3.702242e-08 0.0008445968 0.010701899 -0.02765787
-0.002244188 -0.0012946759 0.0054081045 2.5267114e-05 -0.0026558 0.00074142736 8.370195e-06 8.354555e-06
0.00010610346 0.032746546 0.0058938726 -0.00028015135 -7.2895645e-08 -3.4490007e-05 -0.0036323746 0.03143472
0.011550277 0.021301785 -0.019764869 -0.0001195004 0.029492239 0.003995268 0.00020766808 -0.00017230466
0.0007503075 -0.05908746 0.050126657 0.00041626894 -1.5336094e-07 7.7985525e-05 0.020107739 -0.18428059
-0.015483178 -0.015575425 0.042182665 0.00057362136 0.013410314 -0.014435514 -0.0010846949 8.8966575e-05
-0.0007665979 -0.006822408 -0.0216879 0.0035907645 1.5396627e-05 0.0064238543 -0.024857562 -0.012196908
-0.008746962 0.0014148529 0.0028442421 0.0010989842 0.0029403025 0.0008745025 2.535823e-06 -9.433589e-06
-0.0001621988 0.04683796 0.0002740381 -0.00016183955 7.0374696e-08 0.00017962384 -0.015765224 0.022305239
-0.07299932 0.3547595 -0.086255684 -0.0017350436 0.04982751 -0.0022678962 -0.00019715933 0.0007093098
-0.00043115308 -0.19601634 0.03776747 0.00014088339 -4.341684e-06 -0.0011208667 -0.066662684 -0.37799156

se_block_event.0.2.bias f4 [64]
00000000: f59c fdba f2bb e83d 732b 8b3d ab57 883c
00000010: 4790 9abd c6d7 1ebc d7ee 613d a89b 2bbc
00000020: 275c a33c 330f a63d 8b66 473c db2d 4e3c
00000030: 4e8e a53c fbc5 05bc 359e 963c 2d77 3ebd
00000040: 569f 3c3d b974 753d bd76 d43c b9a1 153c
00000050: cc01 b23d e124 503d f4a3 a63c e90f 5f3d
00000060: af8c 47be 5a4a 513d 7b75 2bbb 53ec 3ebc
00000070: ca1f 9e3c b15c ccba e5fb cbbc 9e95 53be
00000080: 5dcd 2cbc d10d 653d 1562 853d ec9d 5eba
00000090: fcc1 17bc eabb c23d 37cf 0cbb ae97 003c
000000a0: b400 bd3b b9d7 de3d 6526 6a3c 5e33 813d
000000b0: 4bcf 22bd a94a 2a3c 00c7 f8bb b5f1 8aba
000000c0: ac58 713c 44d2 c6bd c4b5 98bc 5206 763c
000000d0: bc99 bc3c d782 5bbb a594 af3c a7e1 dbba
000000e0: 618a 323c adfb 05bb ea43 7f3c ec44 03bc
000000f0: 7730 febd 0c18 183d 595d c93b ec6d 753c
-0.0019349145 0.11363973 0.06795397 0.016643366 -0.0754705 -0.009694999 0.055159416 -0.010474123
0.019941403 0.08108368 0.012170444 0.012584175 0.020209458 -0.008164878 0.018385986 -0.046500374
0.046050392 0.05992577 0.025935525 0.009132796 0.08691749 0.05081642 0.02034185 0.054458532
-0.1948726 0.051096298 -0.0026162553 -0.011653024 0.019302268 -0.0015591589 -0.024900386 -0.20662543
-0.010547009 0.05592138 0.06512848 -0.000849216 -0.009262558 0.09508498 -0.0021485814 0.007848663
0.005767906 0.108809896 0.0142913805 0.06308626 -0.03974847 0.010393777 -0.007592082 -0.0010600599
0.014730614 -0.09708074 -0.01864136 0.015016155 0.023022525 -0.0033494735 0.021433184 -0.0016775624
0.01089725 -0.00204442 0.015580157 -0.008012038 -0.12411588 0.037132308 0.006145161 0.014979821

se_block_event.1.0.weight f4 [16, 64]
00000000: 9e68 a9bb 141b e43d 740f d3bd affe bdbc
00000010: 6c3a 9a3b e8da 55bd 141d 793a 5284 2a3e
00000020: d1d9 2bbd 2811 f13d 821c b7bd 3d53 b2bb
00000030: ec85 913d cabe 27be 3b63 b7bc 9dc8 6c3d
00000040: d623 713c 20b9 13bd 4f44 513e 5550 cabd
00000050: 6caf 0d3e 4bc8 53bd 6b24 d1bc ea0d 65bd
00000060: 1b14 29be 445d 203d bb11 b7bc 424f 42bd
00000070: 3818 36be 0dc2 68bc 7642 b93d b111 9c3c
00000080: e43e 28bd 887f b2bc 8be2 0bbd 817a 75bc
00000090: 39c0 01be aca5 d73d d0f9 95bd dc96 053e
000000a0: 3699 16be a2db bdbc 4de6 1bbe b87c 903d
000000b0: 8314 ca3d a322 68bd 6412 8cbd b3bb 40bd
000000c0: 9ae3 13be 41e6 463c 5137 81bd 7c07 d5bc
000000d0: 2d4f aabd f996 013e 9f6d 2bbd ea9e f6bd
000000e0: 198f 8fbd 493a f13d 8b47 09bd b2da d6bd
000000f0: cd54 043d 83a7 23bc a4cc bebd dd58 e7bc
00000100: f9b9 febb f853 9fbc 009a b53d fec8 c13c
00000110: 922e 923d ba40 933c dbc5 7b3d 2c91 3ebe
00000120: 9943 473d dbf1 10bd eade c43d 4b7f bd3c
00000130: 507b 8b3c 4697 5e3d 2590 153d e39f 8a3e
00000140: 224d af3d b46d 833d 36dd 12be d4b6 153d
00000150: 299e 4cbd 8147 5d3d 5ae1 c53c a778 9a3d
00000160: 65dd ca3d 7b6b d33c 0c55 2c3c b7af a3ba
00000170: b889 c53d 3518 de3c 5970 a8bd 19f0 f93c
00000180: 3715 da3b 9866 703d 6f89 2a3d 1ee6 c13c
00000190: 25c4 dd3c 9afd 833c 352e 4c3d 2f6a 813c
000001a0: b807 37bc 1b00 653d 4134 c53c b8e3 833c
000001b0: 9c2b 63bd b661 5f3d 3f58 513d a562 64bc
000001c0: 2ab8 b03d be8b 0d3e 6dc6 913d 35b2 043d
000001d0: 11b5 883d 5876 32bd 01e4 8a3d f94b 873d
000001e0: dced 873d 4833 12bc 0811 283d febf 903c
000001f0: f1ae 5c3d dc1a 413d d9d1 213d cba6 103d
00000200: dbd0 c13a 0ea5 be3a 96b9 e63a 46f9 873a
00000210: 7df8 bb39 2462 d53a 1673 913a 3c30 0c3b
00000220: 6c03 d73a d43c 263b 6115 ec3a 1662 d53a
00000230: cef6 56b9 ef98 5e3a c6ba 123b e9fd c53a
00000240: fc8a 083b 6629 023b fa7f 843a 1dc5 053a
00000250: 6239 ac3a e113 4a3b a4be 6039 f7a1 f43a
00000260: 7ff9 0aba 316a 4b3a 755d 993a 5ac4 e33a
00000270: 6f90 233b 7a9c ad3a 0ccc b7b7 3647 af3a
00000280: f358 e63a e935 093b 4407 db3a f854 c03a
00000290: 88fc af3a 8362 a43a 0277 6f3a 33f1 32ba
000002a0: 2858 983a aca1 db3a a94c a73a dae2 cb3a
000002b0: 6a71 073b 07d8 d93a 21d8 b33a 87eb bf39
000002c0: 5a77 193b 16fa 1d3b fa1f 933a 445b 173b
000002d0: 5988 743a a88e 003b f76b adba 4ede 833a
000002e0: 9b5d 453a b9e5 0a39 c0e4 d03a 23a5 7139
000002f0: f5e3 9e3a 02e5 683a a419 e33a ab50 043b
00000300: 9698 9ebc cb5d 97bd 4fbc d33d d617 693d
00000310: 189c 78bc b980 66bc 455e 813d 658a d7bd
00000320: 36ac e03d b8a1 dabd 92e6 f93d d7f7 f63c
00000330: 33d7 063e debf 23bc 8c7c 963d f309 633e
00000340: f51d 5b3e 37b4 383d 08f5 81be 7ff7 8b3c
00000350: 98f7 50bd 7879 733d c303 643d 5d27 d73c
00000360: b333 17bd 5168 333d 4c2a 88bc 751b a4bc
00000370: 6875 0b3e 2ac0 953d 3817 44be 2bbf 76be
00000380: 587c 40bc c7ac 453d 37ea 7a3c 2e56 7abc
00000390: 3200 47bc 56f5 fa3d 32eb 783c 61c2 af3b
000003a0: c7bc 9bbb 75b0 5b3d cb61 203d 7e01 6a3c
000003b0: e67d ee3d bcd6 de3d 3d61 81bc 1106 85bc
000003c0: 72be 653d 3a11 983e 7998 543c dfbf 483d
000003d0: 1cf7 783d 8480 d4bd 12d4 013e af38 203e
000003e0: 83f9 0a3e 4211 9fbc e655 9b3d d5cf e2bc
000003f0: c4d8 2cbd 9559 e13d 2c68 763d d3f9 503c
-0.005169942 0.11137977 -0.10305682 -0.023192732 0.0047066715 -0.05221072 0.0009502929 0.16652039
-0.041955773 0.117708504 -0.08940984 -0.0054420517 0.07105622 -0.16381374 -0.022386184 0.057808507
0.014718017 -0.03606522 0.20436214 -0.09878603 0.1383645 -0.051704686 -0.02553006 -0.055921473
-0.16511576 0.039151445 -0.022347322 -0.047438867 -0.17782676 -0.014206422 0.090458795 0.019051405
-0.041075602 -0.021789327 -0.034151595 -0.0149828205 -0.12670983 0.10529646 -0.073230386 0.1304583
-0.14706883 -0.023176018 -0.15224572 0.07055038 0.098671935 -0.056673657 -0.06839445 -0.047054004
-0.14442292 0.012139858 -0.06309379 -0.026004545 -0.08315883 0.12655248 -0.04185259 -0.12042029
-0.070097156 0.11778695 -0.033515494 -0.104909316 0.032307435 -0.009988668 -0.09316376 -0.028240616
-0.0077736345 -0.01944922 0.08867264 0.02365541 0.07137789 0.0179752 0.061467987 -0.18610066
0.04864845 -0.0353869 0.0961283 0.023131987 0.017026573 0.054343484 0.03651442 0.2707511
0.08559634 0.064174086 -0.14342198 0.03655131 -0.04995552 0.05402327 0.024155308 0.07542544
0.09905509 0.025808087 0.010518324 -0.001248828 0.096454084 0.027111152 -0.082245536 0.030509995
0.006655361 0.05869159 0.041634973 0.023669299 0.027071068 0.016112138 0.049848754 0.015797703
-0.011171274 0.055908304 0.024072768 0.016099796 -0.05546151 0.054536544 0.05110955 -0.013939534
0.086288765 0.13822839 0.07117925 0.032396514 0.06675161 -0.043569893 0.067817695 0.066062875
0.06637165 -0.008923359 0.041031867 0.017669674 0.053877775 0.047144756 0.039506767 0.035315316
0.0014786975 0.001454504 0.0017602916 0.0010373972 0.00035852558 0.0016279859 0.001109692 0.0021391055
0.0016404218 0.0025365846 0.0018011743 0.0016279842 -0.00020500572 0.0008491417 0.0022389158 0.0015105578
0.0020834794 0.0019861101 0.0010108941 0.00051029195 0.001313966 0.0030834603 0.00021433324 0.0018663992
-0.000530146 0.0007759659 0.0011700826 0.0017377243 0.0024957915 0.0013245486 -2.1910317e-05 0.0013372663
0.0017574116 0.0020936674 0.0016710539 0.001467376 0.0013426701 0.0012541566 0.000913486 -0.00068261026
0.0011622952 0.0016756556 0.0012763935 0.0015555278 0.0020666965 0.0016620167 0.0013721028 0.0003660584
0.0023417086 0.0024105362 0.001122474 0.002309517 0.0009328179 0.001961628 -0.0013231029 0.0010060759
0.0007528902 0.00013246284 0.0015937313 0.00023045069 0.001212238 0.00088842225 0.0017326367 0.0020189683
-0.019359868 -0.073909365 0.103386514 0.056907497 -0.015173934 -0.014068776 0.063168086 -0.105244435
0.10970347 -0.10675377 0.12202181 0.030147476 0.1316803 -0.009994475 0.07347974 0.22171764
0.21398146 0.04509374 -0.25382257 0.017085789 -0.051017374 0.059442014 0.05566765 0.026263887
-0.03691454 0.043800656 -0.016621731 -0.020032624 0.13619006 0.07312043 -0.19149482 -0.24096362
-0.011748396 0.048260476 0.01531463 -0.015279336 -0.012146043 0.12253825 0.015192794 0.005363748
-0.0047527286 0.05363508 0.039155763 0.014282582 0.11645107 0.10880801 -0.015793437 -0.016238244
0.056089826 0.29700643 0.012975805 0.049011108 0.060782537 -0.10376075 0.12678555 0.15646623
0.13571744 -0.019417409 0.07584743 -0.027686993 -0.04219891 0.110034145 0.06015794 0.012754875

se_block_event.1.0.bias f4 [16]
00000000: 7bd8 58bd 1c88 6a3e 1386 0c3a a32a a03e
00000010: 8dee ecb9 9046 c8b9 efad 173e 0e96 34bb
00000020: 61a6 d4bd 4440 833e a63b b8bd 8c03 c7bd
00000030: d141 073e 1978 fcb7 e009 e2bd 2291 353e
-0.052940827 0.22903484 0.0005360555 0.3128253 -0.00045191162 -0.00038199546 0.14812444 -0.002755526
-0.10383297 0.25634968 -0.08995752 -0.097174734 0.132087 -3.0096666e-05 -0.1103704 0.17731145

se_block_event.1.2.weight f4 [64, 16]
00000000: 406b 363d e1f0 4b3c 8a59 8a3a 4e27 673a
00000010: a8b4 8838 e704 be32 bf5a 093e 1f1b 0339
00000020: a5a1 32bd f54f 8f3c ba77 933c 4ef7 ac3c
00000030: a27c 82bd e695 c4b9 f147 1d3c f683 10bc
00000040: 7b19 e4bc 6efc 623c ab79 9c3a 6d45 07bd
00000050: 6d5b f2b9 9bfd 8f36 bda7 9ebc ea95 7038
00000060: 27ec 3cbc 922d eebb d3fb 5d3c 9eaf 3d3c
00000070: 08ef 72bd f155 11b9 70f2 06bc acb0 fc3c
00000080: f76b 133d 5cf1 fe3c b9db f33a 1484 3d3d
00000090: 4a8e 00b8 fd30 16b5 4ea9 f63b 1d8c ff39
000000a0: bb8b d43c 8851 2abc da4c 0e3d 3f94 503d
000000b0: 5a59 a5bd 0155 673a f5cd 9d3c 2b82 35bd
000000c0: 3428 e93b 3ff4 153d f049 52b9 dd12 7c3d
000000d0: 7c5c 92b6 8ca4 b736 90a8 893c 919f 30b6
000000e0: e527 4c3a f425 3e3c 7496 333a 789a d230
000000f0: 9de9 853d 96d3 86b9 2203 c9b9 7c0f d43c
00000100: 3756 b63d 43da 90bd 932d 483a f6cc cf3c
00000110: 79bd 993a 63c0 abb8 6c89 2cbe 69b2 e2ba
00000120: e60b c03d 458c 94bd 6028 44bd a433 173e
00000130: 0f6a 5c3e 069e fab9 2d40 023d 73f1 42be
00000140: c562 383d 0f20 7f3a 9e9c 5d3a 5a98 94b9
00000150: eaac 1837 3527 09b2 16c9 a73d 3568 d039
00000160: 0724 1abd 285b 023c ec46 4d3c ee22 843c
00000170: 83d2 77bd 3a2c a9b9 3b17 b93a b840 26bd
00000180: 417a c2bb fbc2 2abd 24c7 fa3a 8f3d c1bd
00000190: f0fa 7f39 c9ef 8f37 f93e aebc 15dc 223a
000001a0: ce35 54bc cae9 08bc 5323 923b df16 873b
000001b0: 6fdd 82bd 76a1 3839 a774 07bd a693 c63d
000001c0: 33c3 a53c 6c85 bbbb 7c04 4c3a f34e 3f3c
000001d0: 53f7 99b8 2f63 0038 ad66 b9bd 76ca 84ba
000001e0: d81e 1e3d fd4b 9dbe e005 9a3d e2af df3e
000001f0: c483 ca3d 1f22 7e3a 5ec2 463d 5799 97be
00000200: 58f4 0b3c bd3c 93bc 10c6 ccba edb1 cabc
00000210: 9c88 d937 219a db35 d064 0a3d 2ac2 0138
00000220: cc97 2dba 158c 43bb 74e4 cb3a 3d7b 5135
00000230: 2118 9abd 39f4 c0b8 c76a 40ba fd50 853c
00000240: f133 753d 110f 75bc d693 143b 60bb e3bd
00000250: 6da7 6038 7b03 31b5 be8e 4a3e 9797 a039
00000260: 1660 fb3d e670 9e3d cfea 943c 81e7 bb3c
00000270: 7778 b0bd ca05 fd3a 2364 86bb 35e3 803e
00000280: 48c7 1d3c 868a dd3c e820 cb39 edd9 923c
00000290: e547 1ab8 afbb 81b7 ccbe 343d 0dc5 0b3a
000002a0: 6c53 7cbd db12 04bb f845 9f3b 7309 253a
000002b0: 1e6c 50bd 7fb9 a1b9 d2a9 49bc 029e 88bb
000002c0: e0d2 c03a e8f2 553d 5c59 933a 68d9 9d3d
000002d0: 3177 1237 9397 ccb6 c669 a3ba 7a70 1e38
000002e0: 0ed9 e1bb 345a 873c 6c78 2eba 795a 563a
000002f0: 5086 9c3d bd2f a039 4765 003b 405f 7abb
00000300: b05d 7b3d b3ce 2ebe a33d 91b8 d999 35be
00000310: e1e3 4eb9 093f 1a39 f94b 373d 5ac6 02b8
00000320: 8a02 453c 136d c6ba 1e36 7d3b 5ef0 12bb
00000330: 8157 36be 35ca ee39 d78e 73bb e548 be3d
00000340: 27a9 523e ef24 d2bc daa7 5339 2d15 b93c
00000350: 6ef0 053a 6a00 8135 b8ce e83d 483f ce39
00000360: f415 a83b 4ecd ec3b 50f9 713d ed90 973d
00000370: e976 93bd 0355 0138 db54 803d a835 adbc
00000380: 6539 4e3c 1b41 213d a48b 6bba 5bda 6f3d
00000390: dcb7 4ab6 6fa0 0bb6 24ff e23c 8454 1936
000003a0: fbd9 143a fd50 5f3b 6c30 a63a 6c36 4c9e
000003b0: 5891 6c3d ac80 d3b8 9715 383a fec3 0d3d
000003c0: 934d 8f3e 84ea d2be 47a7 c73a 9626 eabe
000003d0: e278 bab8 5e83 87b8 1790 1a3e 55b2 8437
000003e0: d108 4f3c b6db ce3d de9e 523d ffe7 df3b
000003f0: 6f27 04bf 1690 2c3a 889b c43c c405 5bbc
0.044535875 0.012447567 0.0010555249 0.00088178075 6.518635e-05 2.212114e-08 0.13413523 0.00012503237
-0.043611187 0.017494181 0.018001426 0.021114018 -0.06371428 -0.00037495716 0.009599672 -0.008820524
-0.027844181 0.013854129 0.0011938115 -0.033025194 -0.00046225954 4.2912557e-06 -0.019367093 5.7360077e-05
-0.0115309125 -0.007268616 0.013548809 0.011577515 -0.05930999 -0.00013860293 -0.008236513 0.030845962
0.035991635 0.031120948 0.0018604911 0.046268538 -3.0650095e-05 -5.595064e-07 0.007527507 0.00048741783
0.025945535 -0.010395415 0.03474126 0.05092263 -0.08073683 0.0008824617 0.019263247 -0.04431359
0.0071153883 0.036609884 -0.00020054705 0.061541427 -4.3619057e-06 5.472981e-06 0.01680401 -2.6318924e-06
0.0007787927 0.011605728 0.00068507274 1.5323414e-09 0.06538699 -0.00025716115 -0.00038340042 0.02588629
0.08903163 -0.0707288 0.00076361856 0.025366288 0.0011729441 -8.18975e-05 -0.16849297 -0.0017295602
0.093772694 -0.07253317 -0.047890067 0.14765793 0.21524833 -0.00047801452 0.031799484 -0.19037418
0.04501607 0.0009732255 0.0008453819 -0.0002834227 9.100166e-06 -7.983364e-09 0.08192651 0.00039750492
-0.037632015 0.007956304 0.012529116 0.016129937 -0.060503494 -0.00032267143 0.0014121303 -0.040589064
-0.005934984 -0.041689854 0.0019132835 -0.094355695 0.00024412177 1.7158587e-05 -0.021270262 0.00062126043
-0.012952281 -0.008356521 0.0044597774 0.0041225995 -0.06389891 0.00017607756 -0.033070233 0.096961305
0.02023468 -0.0057226922 0.00077826506 0.011676538 -7.341676e-05 3.060995e-05 -0.09052787 -0.0010131139
0.038603634 -0.30722037 0.07520652 0.43688875 0.098884135 0.00096944155 0.048525207 -0.29609177
0.008542143 -0.017973298 -0.0015622992 -0.024743045 2.593203e-05 1.6361629e-06 0.03378755 3.0936826e-05
-0.0006622046 -0.0029838134 0.0015555755 7.80379e-07 -0.075241335 -9.2007635e-05 -0.000734013 0.01627397
0.05986399 -0.014957205 0.0022671125 -0.11119723 5.356169e-05 -6.5942703e-07 0.19781014 0.0003063052
0.12274186 0.077363774 0.018178372 0.022937538 -0.08616727 0.0019304093 -0.0041012927 0.25173345
0.009630032 0.027043592 0.00038743694 0.01792618 -3.678342e-05 -1.5465395e-05 0.04412727 0.0005331792
-0.061602995 -0.002015284 0.004860636 0.00062956585 -0.05088436 -0.00030846518 -0.012308555 -0.0041692266
0.0014711283 0.052233607 0.0011241841 0.077074826 8.73003e-06 -6.0973193e-06 -0.0012467436 3.7774887e-05
-0.00689233 0.016522504 -0.00066555175 0.00081769336 0.076428056 0.00030553146 0.0019591616 -0.0038203746
0.061368644 -0.17071037 -6.9256195e-05 -0.1773447 -0.00019730582 0.00014710067 0.044750188 -3.1179145e-05
0.012024531 -0.0015138708 0.0038636993 -0.0022421102 -0.17806818 0.00045545553 -0.0037163997 0.09291247
0.20572339 -0.025652377 0.00020185058 0.022593105 0.0005109374 9.61137e-07 0.113675535 0.0003933853
0.00512957 0.0072266227 0.059075654 0.07400689 -0.07200415 3.083517e-05 0.06266185 -0.02114375
0.012586926 0.03936873 -0.00089853466 0.05855785 -3.0207366e-06 -2.0805999e-06 0.027709551 2.2847971e-06
0.00056782336 0.0034075372 0.0012679226 -1.0810924e-20 0.057755798 -0.00010085231 0.000702226 0.03461074
0.27988872 -0.41194546 0.0015232348 -0.45732564 -8.891687e-05 -6.461771e-05 0.15094028 1.5818669e-05
0.012636379 0.101005 0.05142104 0.006833076 -0.5162267 0.000658275 0.023999944 -0.013368074

se_block_event.1.2.bias f4 [64]
00000000: 5348 283b 394b ffbc f163 77bd 4def dd3c
00000010: 886f 553c 5117 26bc dc01 5cbc aefd 10be
00000020: d0c4 273d ec1e 893d 8457 fc3c b241 293c
00000030: 49f7 b73d 18e5 0c3d 0708 193d 02c8 1f3d
00000040: 3609 93bd c52d 983c 5447 58be 0373 adbc
00000050: 0554 313d be6a b93c 3305 f33c 11e4 78bc
00000060: 3bc7 90be 1b70 4a3d 701d c6bc ebb4 39bc
00000070: 7534 353d 0a6a f63c 1ff7 94bd 4539 c13c
00000080: 7490 9f3c 21f3 2cbd 2785 30bc 52a6 c9bc
00000090: 4bff 913c 3b9d 71bd c2a9 223c f598 2c3d
000000a0: 5771 c8bd 56b7 5abc 5cd9 e33c 7a82 a63d
000000b0: 68b9 5cbe fd69 183d 1303 583c 63d8 d7ba
000000c0: ccdb 9c3c eb32 cabc 9e89 c9bc b111 6d3c
000000d0: 85f7 1d3d 2503 1e3e eee6 373d 4cf6 09bd
000000e0: 3af3 703d c839 213e eba7 b63c a1b1 803d
000000f0: 019f 113d 2202 853d 66d4 05bc b42d f2bb
0.0025677874 -0.031163799 -0.060398046 0.027091647 0.013027079 -0.010137395 -0.013428178 -0.14159271
0.04095918 0.06695351 0.03080345 0.010330604 0.08982713 0.03439817 0.03736117 0.0390091
-0.07179491 0.018576512 -0.2112096 -0.021173006 0.043293018 0.022633906 0.029665565 -0.015191094
-0.28277 0.04942332 -0.024183959 -0.011334638 0.04423948 0.03007986 -0.07273697 0.023586879
0.01947806 -0.042224053 -0.0107739335 -0.02461544 0.017821928 -0.058987837 0.009928169 0.04213806
-0.09787243 -0.013349375 0.027813606 0.08130355 -0.21555102 0.037210453 0.013184327 -0.0016467687
0.019147776 -0.024682483 -0.024601754 0.01446955 0.03856613 0.15430887 0.044897966 -0.033682153
0.05882571 0.15744698 0.022296866 0.0628388 0.03555203 0.064945474 -0.0081683155 -0.007390702

se_block_event.2.0.weight f4 [16, 64]
00000000: bdbf 5c3a ba85 1d3a f255 e63a 6121 43ba
00000010: 8601 a2b9 a7ad 64b9 984f afb9 54be c2b7
00000020: c7cf 8f3a 14db 8dba ecc7 68ba ecb4 c0ba
00000030: b189 f5b8 e49a 4b3a b148 90ba 9aba e43a
00000040: 1f92 2a3b ad10 1ab9 4567 0639 0f74 8d39
00000050: 5272 1bba 95cb ac38 64b3 1bba f867 aa39
00000060: 64a4 43ba 55ec 11b9 0320 b73a 2e39 6c38
00000070: a8c3 113a 3cf7 37ba d280 2cb9 8ca7 c7ba
00000080: 3590 c439 8cd1 e6ba a6ca 73ba 01e9 8939
00000090: e202 033a aab1 a13a 906d 023a 78be d73a
000000a0: 9f97 61ba 1e3a ff38 b8d1 17ba 83fc 6e3a
000000b0: 2a32 1bba 118a aeb9 9698 bb39 f088 553a
000000c0: eeae 8c3a ace6 40bb fa3a ef3a 3a4d 06ba
000000d0: 89bc f938 c9c6 043a 09c8 9eba 2042 01bb
000000e0: a368 22ba 33e8 dc39 1958 4dba 84bd 3e3a
000000f0: 7b4b ceba fc54 8aba def8 4ab9 e859 17ba
00000100: 9437 37bb 984b 503a b59c 2c3b d941 cb3a
00000110: 9670 5eba cb90 a639 dbd6 bb3a ccee e4bb
00000120: e57b 7a3b bbf7 1b3b e3c2 90ba 5ada 92b9
00000130: 6de4 efba e29f e83a 58aa 9f39 9a24 113c
00000140: 3104 823b 9e6d 96b9 7460 1e3b de22 b33a
00000150: 8d16 51ba 6d55 123b 623d 243b c83f 953a
00000160: c48d 16bb a849 803b d980 2f3b 8839 adb8
00000170: ec38 65ba 7ede aab7 d5bb 3b3b 80d9 d6bb
00000180: 1209 493b ae29 a83b 7df5 efba 94ed 203b
00000190: 22ae faba d878 4e3c dc3f a139 e78e 903b
000001a0: 9e35 3dba 9465 9d3b b104 28bb ffdc b73b
000001b0: 8e8b 0c3c 8aae 0dba d0cc 3e3b 1a23 3fbb
000001c0: 3033 a53b 283d 75bb 408b 8abb 6db6 2b3b
000001d0: 24e9 1c3a 8107 2a3b 3e7a a3ba 0b88 693a
000001e0: 9b74 4a39 9696 6bbb b14e 433b eecf fdba
000001f0: 23c9 2abb cbe8 59ba 7efa f2ba 1343 5fb9
00000200: 542e 883d 1f02 0b3e 3113 eb3b 4c32 edbc
00000210: 07c9 0ebd f835 fa3b c6a8 683e 97f0 4a3e
00000220: 8bcf a4bc 4b81 973e 70c4 e63d 9d1a 153c
00000230: 1313 843e bf0b 833a 1d2c 233c 1634 a03e
00000240: 210a 993e ce96 113e 5759 603e d5a9 7d3b
00000250: bc23 543d 4c83 e33d cae1 9dbc 78e4 843d
00000260: 78bc 0a3e 69e8 42bd 4635 763d 3d97 bb3d
00000270: 886a 863d d1a2 f23b 9308 493e 41d5 153e
00000280: b8ea 86b9 b45e 683e 90ee 053e 28b8 0f3d
00000290: cedf bcbb 7266 a13e 738b 003d e925 663e
000002a0: 1ca9 593d efe9 473d 4496 6c3d e4d5 1c3e
000002b0: 576e 4e3e 634b 87bc f2ed 3c3d a96c bc3d
000002c0: eefd 3cbc c03e 083f a03e 11be d2f6 00bc
000002d0: 8985 883d b1cc e83d 8bc1 bbbc 8537 953d
000002e0: ad53 0b3c c2ac 4e3d e505 46bc 7c38 b33a
000002f0: 621e 563d 5679 a63d 3e61 2b3c d3a5 c33c
00000300: 7cb0 ccbd 2c6c 30be d166 aebd 3914 643c
00000310: aa87 733e 9215 143c e5e0 47be 2639 453e
00000320: 39ea ec3c 9a8e cfbd eb38 3bbe ee27 e2bc
00000330: e140 19bd f579 223c 7146 323c e270 9b3d
00000340: 07b9 debc be38 ccbd 4fee 0e3e f3af 30bd
00000350: 1794 993d 4755 04be f7c9 993c 030d 18be
00000360: 7603 693e 8ff2 793d cd93 5bbe b023 72bd
00000370: 2d3c 43bd c85d 6fba 2d54 1b3e 0e5e 5b3e
00000380: 9677 3cbc e224 0abe ff48 4bbe 08cd 47be
00000390: b92d 3ebb ef68 04be fd6b e7bc 51fa 6a3e
000003a0: 6d0f 083e 8fd6 1ebe 0e1a ce3d 4d93 913c
000003b0: 8eb9 193e 77ef 193c 9a2e 2fbe 85d2 22be
000003c0: baf2 cabc ce7d 413d a9c0 78bd 768a 44bd
000003d0: 9576 aebc 7213 28bb a8a5 043d 357a e33d
000003e0: 45a5 493c 4a31 ae3d 8a0a 763c d083 8ebc
000003f0: 757c 583e 7aa4 853c b576 8ebc bf75 f0bc
0.0008420905 0.00060090015 0.0017573221 -0.00074436335 -0.00030900183 -0.00021808465 -0.00033437903 -2.321523e-05
0.0010971957 -0.0010822737 -0.00088798883 -0.0014702356 -0.000117081574 0.0007766916 -0.0011007992 0.0017450631
0.0026027036 -0.00014692797 0.00012817707 0.00026980086 -0.0005929816 8.239519e-05 -0.0005939512 0.0003250239
-0.0007463156 -0.00013916318 0.0013971332 5.6320037e-05 0.0005560466 -0.0007017737 -0.00016451188 -0.0015232428
0.00037491476 -0.0017610057 -0.00092999113 0.00026304278 0.0004997683 0.0012336273 0.00049754325 0.0016459962
-0.0008605662 0.00012170173 -0.00057914434 0.00091166067 -0.0005920256 -0.00033290734 0.00035781105 0.00081457105
0.0010733285 -0.0029434366 0.0018251829 -0.0005123202 0.00011908363 0.00050650217 -0.0012114058 -0.0019723251
-0.00061954017 0.00042134672 -0.0007833257 0.0007276165 -0.0015739048 -0.0010553892 -0.00019356931 -0.000577359
-0.002795671 0.00079458347 0.0026338522 0.0015507295 -0.00084854045 0.00031769866 0.0014331 -0.0069864746
0.003822082 0.0023798782 -0.0011044409 -0.00028009975 -0.0018302329 0.0017747844 0.0003045376 0.008858824
0.003967785 -0.000286919 0.0024166377 0.0013667007 -0.00079760776 0.002232875 0.0025061 0.0011386806
-0.0022972682 0.0039150305 0.002677968 -8.259999e-05 -0.0008744139 -2.0369185e-05 0.0028645892 -0.0065566897
0.0030675572 0.0051319217 -0.0018307414 0.002455567 -0.0019125382 0.012602054 0.00030755892 0.0044115665
-0.00072177674 0.004803369 -0.0025637562 0.0056110616 0.008578194 -0.00054047315 0.0029113777 -0.002916521
0.0050415024 -0.0037420485 -0.0042280257 0.0026201264 0.00059856684 0.0025944414 -0.0012472344 0.00089085166
0.0001930766 -0.003594791 0.0029801542 -0.0019364336 -0.0026059828 -0.0008312582 -0.0018537787 -0.00021291924
0.066494614 0.13575028 0.0071739187 -0.028954647 -0.034859683 0.007635828 0.22720632 0.1981834
-0.020118495 0.2959083 0.11267936 0.009100583 0.25795802 0.0009998007 0.009959248 0.31289738
0.2989054 0.14217684 0.2190908 0.0038705964 0.05179189 0.11109027 -0.019272704 0.064888895
0.13548458 -0.047584925 0.0601094 0.09159706 0.06563288 0.007404663 0.19632177 0.14632131
-0.0002573335 0.22692376 0.13079286 0.035087734 -0.0057639843 0.31523472 0.03138299 0.22475399
0.05313979 0.04880708 0.057760492 0.15315968 0.20159279 -0.01651544 0.04612536 0.09200413
-0.011535151 0.5322075 -0.14184046 -0.007871347 0.06666095 0.11367167 -0.022919437 0.0728598
0.008503837 0.050457723 -0.012086366 0.001367345 0.05227507 0.08128612 0.010460196 0.023882782
-0.09994599 -0.17228764 -0.085157044 0.013920837 0.2378222 0.009038346 -0.19519384 0.19260082
0.02892028 -0.10134621 -0.18283431 -0.02760693 -0.03741539 0.009916772 0.010881052 0.0758989
-0.027187837 -0.0997176 0.13958095 -0.04313655 0.07498949 -0.12923156 0.018773062 -0.14848714
0.22755226 0.061022338 -0.214431 -0.059116066 -0.04766481 -0.0009131101 0.1516883 0.21422598
-0.011503121 -0.13490632 -0.19852065 -0.19511807 -0.0029018952 -0.12930654 -0.028249735 0.2294705
0.13287134 -0.15511535 0.10063563 0.017770434 0.1501219 0.009395472 -0.17107621 -0.1590062
-0.024773944 0.047239117 -0.06073061 -0.04798361 -0.021296779 -0.0025646356 0.032384545 0.111072935
0.01230747 0.08505495 0.015017161 -0.017396837 0.21141227 0.01631378 -0.017390588 -0.02935302

se_block_event.2.0.bias f4 [16]
00000000: 20f6 cdba 3009 9bbc 60bc 6b3e a763 803e
00000010: 8b81 94bd b4b9 ebbc 2079 adba 4019 35bc
00000020: afc1 20be 20b6 1a3e 9d74 46bb 15a3 77bc
00000030: ddb0 72bb 9e95 aabc 7c9a 40bb 7059 08bb
-0.001571361 -0.01892528 0.23021078 0.2507603 -0.07251271 -0.028775074 -0.0013234951 -0.011053383
-0.15698884 0.15108538 -0.003028191 -0.015114565 -0.0037031688 -0.020823296 -0.0029388955 -0.0020805262

se_block_event.2.2.weight f4 [64, 16]
00000000: a2f5 253a 904f a839 ea96 db3d d8cb 9cbd
00000010: 3940 f1ba eb84 2dbc ae67 10b8 8b75 6abb
00000020: 2a41 073d b943 a63c 9148 d3b9 ea91 fcba
00000030: 6548 c038 4f19 b6bb ef6a 02ba 999e cdba
00000040: 9ea9 983a 031d 8c3b 9756 e63c 1103 dcbb
00000050: 557c d53a 598e fabb 5872 2dba 5829 433b
00000060: 03a0 17be 8db8 6fbd 0c1b bf38 2d39 74b7
00000070: 866e 9d39 6656 15bb 832b 17bb 24fd 2aba
00000080: e909 ef37 dfd9 363b ab5e d4bc 8c85 773c
00000090: 97e3 b43b 6269 3c3b a0fe 8738 1f8d a83b
000000a0: 259b a0bd 5dcd 11bd b09b 0b3a 4210 bf3a
000000b0: ea66 42b9 94e9 a63b 0eae d13a b8d3 c93a
000000c0: 2e47 1cba 1eb1 0239 eee2 2e3d cc42 c439
000000d0: 9155 8a3a cdb6 1c39 3f50 44b7 16ba ca39
000000e0: 360a fb3b c6fe 9238 d4bd 15ba 1423 b139
000000f0: 2206 c9b9 9227 0f3a 3eaf 00ba 6d64 a6b8
00000100: 493d 0fba d75d 83bb 5f9c f33d 0898 72be
00000110: 21a7 973c 5140 d63b 8750 bd39 73b6 e93b
00000120: 702c 743e a40f 803a a6ea 9eb9 48f5 643c
00000130: 42fd 3cb9 bab2 943c 5bed 0b3b 8eaf b0ba
00000140: 93c5 873a a935 ea3a e2d3 e1bc 1663 c83c
00000150: 6276 2f3c cbfb b0bb c498 3439 d58b 533b
00000160: de3d 83bb debf 0bbd fea6 8839 dd97 a23b
00000170: 1fce 51b5 243c a7b9 11d0 64b9 4bca bbba
00000180: f17b 233a fbc6 753a 99e6 14bd 70d3 cf3c
00000190: 472c 67bc f3f5 0fbc dee2 36b8 581d 32bb
000001a0: 2a97 ec3a 5cc1 f13c 2f95 69b9 9f2c 9f3a
000001b0: 54c9 65b9 1900 efbb 60d3 8dba dd2d b23a
000001c0: 2605 2b3a 7682 7ab8 0b45 263d f49e 90be
000001d0: e4cf 5f3d d25f 813c 00d2 9539 f20e cfbb
000001e0: 358b 403e 30ec 36be 33f2 9c38 8f8c d1bb
000001f0: f145 01b8 e82a c03c 3662 e43b 2efa 1db9
00000200: 5d11 0939 1de4 2f3b 843d 433d 1f2c 913b
00000210: d8b6 db3b 6940 4f3b 4d44 78b6 aa9c 5e3b
00000220: 5ceb 983c f2ad d0b8 d620 9f38 4b6b 2b3b
00000230: c528 bfb8 818d 333b 4017 933a 8f96 3339
00000240: 1143 0f3a 795f 733b 431c 40bd fdae babd
00000250: 47a2 b23b fd68 d2bc efad 04b9 088b 08bc
00000260: efb4 9e3d 8432 c43d 537e 7bba 8025 e0ba
00000270: f38a 58b8 84b8 bbbb 6a26 50bb 047c 10bb
00000280: b1aa bd39 9a6e a939 680b 77bc d74d d439
00000290: 4c28 55bc 84d6 14bc f46c 1f38 cc50 48bb
000002a0: dc67 bebc ebe4 933c 47b9 5ab9 69db 2839
000002b0: b49e 7cb9 02b0 cabb 26e8 6bba 218b 923a
000002c0: d243 8fba e772 6bba 892f 9b3b 75f3 8e3b
000002d0: 2ecf 023b 6453 7eb9 899d 1936 5b7c 74b6
000002e0: 2075 d43b 470d a43b 6824 60ba 8d99 22b9
000002f0: 6bb7 9ab9 c095 2cba 4816 baba 9dda 04b8
00000300: e302 d1b8 20cf 693b b646 18be 3567 1d3d
00000310: b70c 0a3d 5533 ad3b 2385 f2b9 396b bb3b
00000320: ca19 e53d d949 fb3b 1af5 18ba a03d 243b
00000330: 986d 7539 255c c83b 98ce 933b 4c2f 3c3a
00000340: deb1 f8b9 1820 813b 8d29 f0ba db5a 97bc
00000350: b170 003d 9c2c d53b bfa4 463a 59e0 263c
00000360: 3acd 1c3c e7b4 71bd b011 25ba cbab 483b
00000370: 0cf3 7db9 bb19 0a3c bb4f 013b 7d9f 23bb
00000380: 0bb4 6aba c52f 16ba 68ee 1f3d 5911 363b
00000390: a446 073a a137 0aba 22dd a836 9df0 30b9
000003a0: c093 f23b 1f57 7239 7b9a 84ba bd3b 5eb9
000003b0: 5cf1 22b9 49ba 273a f557 84ba 0762 a037
000003c0: 258f 0f3b ead9 c2ba efcb dfbe 00a0 013e
000003d0: 3963 ec3c ac1e 8a39 5ac7 9f39 7ae5 19bb
000003e0: 624c 273e 4b3c 023d 3d79 2e3b dbe3 6e3b
000003f0: aeda 0b3b 9705 df3b afd4 993b 6141 633a
0.00063308526 0.00032102736 0.10722144 -0.076560676 -0.0018405981 -0.010590772 -3.4428835e-05 -0.0035775627
0.03302113 0.020295965 -0.00040299122 -0.001926956 9.168758e-05 -0.0055572162 -0.0004975041 -0.0015687525
0.001164723 0.0042759194 0.028117461 -0.0067142327 0.0016287664 -0.0076463637 -0.0006616465 0.0029779281
-0.14807133 -0.05852561 9.1126276e-05 -1.4556846e-05 0.0003002772 -0.0022787093 -0.0023066706 -0.0006522706
2.8495635e-05 0.0027900857 -0.025924047 0.015107524 0.005520295 0.0028749336 6.484729e-05 0.005143776
-0.078420915 -0.03559624 0.00053256284 0.0014576989 -0.0001853962 0.0050937627 0.0015997307 0.001539818
-0.00059615343 0.00012463747 0.042696886 0.000374338 0.0010554065 0.00014945418 -1.1701194e-05 0.00038667087
0.0076611293 7.009278e-05 -0.00057121855 0.00033786206 -0.00038342277 0.00054609135 -0.00049089256 -7.9342026e-05
-0.0005464149 -0.0040089893 0.1189506 -0.23690808 0.01851231 0.006538429 0.00036108887 0.0071323453
0.23845077 0.0009770286 -0.00030310935 0.013974495 -0.00018023423 0.01815163 0.0021351192 -0.0013480054
0.0010358564 0.0017868775 -0.027566854 0.02446131 0.010709377 -0.00540111 0.00017223047 0.0032279391
-0.004005178 -0.034118526 0.0002606436 0.004961951 -7.8158513e-07 -0.0003189753 -0.00021821285 -0.0014327256
0.0006236425 0.00093756587 -0.036352728 0.025369376 -0.014109678 -0.008786666 -4.3603468e-05 -0.0027178135
0.0018050421 0.029511146 -0.00022276187 0.0012144035 -0.00021914142 -0.007293713 -0.0010820441 0.0013593991
0.00065238995 -5.9726146e-05 0.04059319 -0.28246272 0.05464162 0.015792761 0.00028575957 -0.0063189203
0.18803103 -0.17863536 7.483773e-05 -0.0063949297 -3.0821135e-05 0.02345796 0.0069697155 -0.00015065886
0.00013071806 0.0026838847 0.047666088 0.0044303085 0.0067051463 0.0031624085 -3.6994636e-06 0.003396789
0.018666916 -9.950613e-05 7.587827e-05 0.002615648 -9.115184e-05 0.0027397575 0.0011222139 0.00017126858
0.0005465011 0.0037135764 -0.046901952 -0.091154076 0.005451474 -0.025684828 -0.00012653296 -0.008333929
0.07749354 0.095799476 -0.0009593714 -0.001710102 -5.162782e-05 -0.005728783 -0.0031761178 -0.0022046575
0.00036176064 0.00032316596 -0.015078403 0.00040493786 -0.013010096 -0.009084348 3.8010025e-05 -0.0030565737
-0.023242883 0.018053493 -0.00020859121 0.00016103465 -0.00024091714 -0.0061855325 -0.00089991314 0.001118038
-0.0010930246 -0.00089816604 0.0047358912 0.0043625184 0.0019959914 -0.00024254393 2.2890474e-06 -3.6431218e-06
0.006483689 0.0050064656 -0.0008550347 -0.00015506726 -0.00029509826 -0.0006583594 -0.0014197314 -3.1674852e-05
-9.966434e-05 0.0035676435 -0.14870724 0.038428504 0.033703532 0.0052856603 -0.00046257031 0.005719569
0.111865595 0.0076687154 -0.0005834863 0.0025061145 0.00023405848 0.0061145 0.004510712 0.00071786786
-0.00047434767 0.0039405935 -0.001832293 -0.01847594 0.03135747 0.006505562 0.00075776497 0.010185325
0.009570414 -0.059010413 -0.0006296886 0.0030619975 -0.00024218502 0.008428986 0.001973136 -0.0024966889
-0.000895322 -0.0005729164 0.03904572 0.0027781336 0.00051603676 -0.00052725716 5.0325334e-06 -0.00016874303
0.007402867 0.00023111374 -0.001011684 -0.00021193824 -0.00015539437 0.0006398303 -0.0010097014 1.9119134e-05
0.002190539 -0.0014865969 -0.43710276 0.12658691 0.028855907 0.00026344263 0.00030475372 -0.0023482726
0.16337731 0.03179578 0.0026622557 0.003645173 0.002134006 0.0068060863 0.0046945433 0.0008669105

se_block_event.2.2.bias f4 [64]
00000000: 355a 0f3c 5454 bb3d bf73 9d3c 1c82 72ba
00000010: b009 0ebe 2c83 fc3b bad7 47bb 1aba 47ba
00000020: b88c 353c 9ae3 833c 2959 4cbc bfff 6a39
00000030: 538b 49bc 3106 9dbc 57c8 0ebb 113a e83c
00000040: 94d7 023d 80c4 323c bbed fe3c 5f13 52bc
00000050: f9cf 513c 7bcd 37bd 2262 183b 27a4 59bc
00000060: 83be 8cbd 2c8d ae3c 0959 66bb 98f7 983b
00000070: eacd 61bd ce4f 8cbb ef50 b63d c445 00be
00000080: b135 c63a 7896 fc3b fb28 2a39 2851 a8bb
00000090: ae47 033c 6e8f 98bc 62c8 bbb9 da7c 81bd
000000a0: d429 443d 5b0c 493d 4a72 57bd 2f3c 1bbc
000000b0: a31f 3d3d 83fb 6b3a 7db9 023b ffe8 54bb
000000c0: 48d9 f5bb 2e45 91bd fe87 8e3d 06e9 13bc
000000d0: 9d5a d1bc 7cce 923d e0db 6b3a 0528 b3bb
000000e0: 0008 baba f2fe 943c f651 233b 9528 1abc
000000f0: a9a1 dcbd beec e3bb 6cef f13a 0257 e7bb
0.008749534 0.09146944 0.019220231 -0.0009250955 -0.13870883 0.0077060666 -0.0030493573 -0.0007618979
0.011080913 0.01609974 -0.012472429 0.00022411252 -0.012301284 -0.019167991 -0.0021786892 0.028348
0.031943873 0.010911107 0.031119218 -0.012822001 0.012805932 -0.044873696 0.002325185 -0.013283766
-0.06872275 0.02130755 -0.0035148284 0.0046681874 -0.055128016 -0.0042819744 0.089021556 -0.12526613
0.0015122202 0.007708367 0.0001622773 -0.0051366277 0.008012695 -0.01862308 -0.00035816716 -0.06322642
0.047891453 0.04908405 -0.05259923 -0.009474798 0.04617275 0.0009002017 0.0019946985 -0.003248751
-0.0075027086 -0.07093273 0.06959532 -0.009027725 -0.025555903 0.0716829 0.00089973025 -0.005467417
-0.0014193058 0.018187974 0.0024920679 -0.00940909 -0.10773022 -0.006955712 0.0018458194 -0.0070599327
