data/deephit_model.pth (torch, 196327 bytes, 32 tensors)

se_block.0.weight f4 [5, 23]
-0.15354352 -0.112555265 -0.09903242 0.06579155 -0.12772483 0.1112982 0.12219291 -0.18379653
-0.13432972 0.16880845 0.06527927 0.05929292 -0.10277248 0.18814892 0.034523487 -0.19094397
-0.18586282 0.15260915 0.19955505 -0.20207335 0.11670522 0.032816365 0.05920786 0.007105332
-0.20061868 -0.16811685 -0.07363058 0.037032563 0.20351566 0.15026784 -0.19295993 -0.16414191
-0.0436243 0.0540263 0.15540229 0.12058058 -0.076135896 -0.023801805 0.119625404 -0.07225733
-0.15846667 0.15818271 -0.14493318 0.09806369 0.10756587 -0.09946152 -0.027237395 0.0963568
0.022047706 -0.1935458 0.07491707 0.027948849 0.026890742 -0.18789017 -0.17397489 -0.0828517
-0.18573591 -0.0122158015 0.022181237 0.013627323 -0.010658172 0.015379011 0.20274459 0.16525848
0.14867416 -0.02484967 -0.009245208 -0.14201236 0.17454334 -0.03380361 0.13415903 -0.12047252
0.08084726 -0.033294413 0.09009543 -0.17831475 -0.009639538 0.07677196 0.025752373 -0.12794846
-0.12554862 -0.0112611 -0.013772884 0.018264668 -0.004797572 0.17787957 0.0927969 -0.025830498
-0.11497197 -0.03028594 -0.16259144 0.20790221 0.243037 0.07705752 -0.007578643 -0.1266542
-0.13304439 -0.19420935 -0.07940436 0.09221998 0.053940147 -0.16605607 0.13963215 -0.17804214
-0.026293261 0.10776854 0.17661268 0.13619477 -0.18796815 -0.10799576 0.11127141 0.05765843
-0.11163712 -0.029769091 0.06690907
00000000: 833a 1dbe 6083 e6bd 82d1 cabd b8bd 863d
00000010: 4cca 02be 50f0 e33d 4740 fa3d 2835 3cbe
00000020: bb8d 09be 1fdc 2c3e 23b1 853d 22dd 723d
00000030: 617a d2bd 1caa 403e 8068 0d3d d186 43be
00000040: d352 3ebe 9345 1c3e 2958 4c3e 51ec 4ebe
00000050: 2503 ef3d 746a 063d f183 723d d8d3 e83b
00000060: fc6e 4dbe d326 2cbe a1cb 96bd 75af 173d
00000070: 6966 503e d0df 193e 4a97 45be d114 28be
00000080: 65af 32bd ae4a 5d3d c721 1f3e f3f2 f63d
00000090: 23ed 9bbd 01fc c2bc 2afe f43d a7fb 93bd
000000a0: 1645 22be a6fa 213e 5d69 14be 9ed5 c83d
000000b0: 7f4b dc3d 7bb2 cbbd f520 dfbc b756 c53d
000000c0: 649d b43c df30 46be 1f6e 993d fcf4 e43c
000000d0: f949 dc3c 4866 40be 7926 32be 27ae a9bd
000000e0: 8e31 3ebe c924 48bc 6db5 b53c 2345 5f3c
000000f0: 9d9f 2ebc 3ff8 7b3c 479c 4f3e 8539 293e
00000100: 0a3e 183e 8991 cbbc 3779 17bc b06b 11be
00000110: 7dbb 323e a775 0abd fc60 093e 4cba f6bd
00000120: 4093 a53d b95f 08bd f483 b83d 2498 36be
00000130: 27ef 1dbc 9e3a 9d3d a4f6 d23c ec04 03be
00000140: d18f 00be 7a80 38bc aaa7 61bc c99f 953c
00000150: f334 9dbb 1026 363e 4d0c be3d 7b9a d3bc
00000160: 6d76 ebbd 381a f8bc 5f7e 26be 51e4 543e
00000170: b1de 783e 55d0 9d3d 4456 f8bb a3b1 01be
00000180: ca3c 08be d1de 46be c19e a2bd d4dd bc3d
00000190: 58f0 5c3d 9a0a 2abe bbfb 0e3e ae50 36be
000001a0: f764 d7bc c1b5 dc3d f4d9 343e a476 0b3e
000001b0: b97a 40be e22c ddbd 44e2 e33d 3f2b 6c3d
000001c0: 01a2 e4bd 4fde f3bc 9f07 893d

se_block.0.bias f4 [5]
0.06542505 0.19232646 -0.045762114 0.058508262 -0.04645292
00000000: 92fd 853d 3af1 443e 0e71 3bbd 5ca6 6f3d
00000010: 6b45 3ebd

se_block.2.weight f4 [23, 5]
0.3442728 0.24754266 -0.00636023 -0.16188891 -0.35250038 0.29370856 0.11414081 0.0063280296
-0.043377 -0.3373895 0.1684762 -0.039439376 -0.013501854 0.15924758 0.1373123 -0.25741023
-0.3412108 -0.26680094 -0.33061492 0.22827421 0.17550848 0.32279208 -0.104257986 -0.0018056779
-0.14497904 0.11602736 0.17502744 0.14562784 -0.037014157 0.24025129 0.13575904 -0.038286235
0.29292634 -0.28472796 0.081002094 -0.10097045 0.08158609 -0.090478376 0.42593095 0.32290697
0.027096685 -0.2853362 0.41165993 -0.15973032 0.15610318 -0.114489205 -0.13020276 0.13741763
0.2901378 -0.39899826 0.12069424 0.04643327 0.11701044 0.18808953 -0.16101098 -0.2693629
-0.1843587 0.11708859 0.31069052 0.26903796 0.11405343 0.349251 0.4408904 -0.054580946
0.34951255 0.16929379 0.3566617 0.022794832 0.22745171 -0.08603934 0.2765372 -0.36042404
0.19002993 0.1310757 -0.4437249 0.4216881 0.24820213 -0.40658483 -0.3851929 0.22716644
-0.15545768 0.38047767 0.003873491 -0.4133113 0.43561918 0.3691347 -0.27650255 0.33675712
-0.07467254 0.10083845 -0.20911829 -0.33143616 -0.08087555 -0.16223651 -0.019551221 -0.06918455
-0.38265952 -0.40852457 0.28415468 0.08959942 -0.2635045 0.4265543 0.22711958 0.080498315
-0.31327003 0.029659074 0.15288015 -0.2517959 -0.38665876 -0.21911526 0.34498262 -0.32109144
-0.40293023 0.081829995 -0.32987064
00000000: 8644 b03e d37b 7d3e 7a69 d0bb 35c6 25be
00000010: ee7a b4be f860 963e a8c2 e93d 5c5b cf3b
00000020: 15ac 31bd 51be acbe 0685 2c3e 2f8b 21bd
00000030: e136 5dbc cc11 233e 989b 0c3e 46cb 83be
00000040: 2fb3 aebe 229a 88be 5c46 a9be b7c0 693e
00000050: 7fb8 333e 0145 a53e 3685 d5bd 7fac ecba
00000060: 6375 14be c19f ed3d 653a 333e 771f 153e
00000070: 289c 17bd 6f04 763e 6b04 0b3e 07d2 1cbd
00000080: 71fa 953e ddc7 91be 6de4 a53d 98c9 cebd
00000090: 9c16 a73d ba4c b9bd 9f13 da3e 1054 a53e
000000a0: def9 dd3c 9617 92be 17c5 d23e 5890 23be
000000b0: 83d9 1f3e 5179 eabd df53 05be 35b7 0c3e
000000c0: f18c 943e 8049 ccbe 8b2e f73d d030 3e3d
000000d0: 2ba3 ef3d 8b9a 403e 10e0 24be efe9 89be
000000e0: 87c8 3cbe 25cc ef3d d412 9f3e 58bf 893e
000000f0: d894 e93d 07d1 b23e 63bc e13e 4590 5fbd
00000100: 4ff3 b23e 5a5b 2d3e 5d9c b63e 3abc ba3c
00000110: 1ae9 683e 6535 b0bd 4996 8d3e 8089 b8be
00000120: 3597 423e b538 063e e92f e3be 81e7 d73e
00000130: b328 7e3e e32b d0be 0138 c5be 529e 683e
00000140: 4c30 1fbe f8cd c23e 65da 7d3b 8a9d d3be
00000150: 7a09 df3e 39ff bc3e be91 8dbe 6e6b ac3e
00000160: ebed 98bd 6484 ce3d 1b23 56be 00b2 a9be
00000170: 15a2 a5bd 5421 26be e229 a0bc a1b0 8dbd
00000180: f3eb c3be 222a d1be b97c 913e e77f b73d
00000190: 10ea 86be 5365 da3e 0992 683e 4ddc a43d
000001a0: ee64 a0be 96f7 f23c 9d8c 1c3e 64eb 80be
000001b0: 23f8 c5be c05f 60be 90a1 b03e 1966 a4be
000001c0: df4c cebe 7c96 a73d cee4 a8be

se_block.2.bias f4 [23]
0.17248766 -0.09767614 0.39382258 0.32202345 -0.03971484 0.19194308 0.16167302 -0.3516021
-0.13692418 0.25957432 0.041072164 -0.33178002 -0.123740174 0.23666903 0.33211535 0.28474683
0.3632672 -0.2389316 -0.2928827 0.35126182 -0.21229772 -0.08768328 -0.27951744
00000000: 9ba0 303e 6e0a c8bd 1da3 c93e 42e0 a43e
00000010: 07ac 22bd ba8c 443e 9d8d 253e 3105 b4be
00000020: da35 0cbe ede6 843e 493b 283d 12df a9be
00000030: 7d6b fdbd 5e59 723e 060b aa3e 56ca 913e
00000040: 29fe b93e 7caa 74be b9f4 95be 97d8 b33e
00000050: 9364 59be 4b93 b3bd e91c 8fbe

se_block_event.0.0.weight f4 [16, 64]
0.4251336 0.05295196 -0.30744153 -0.02664932 -0.108245246 0.06732183 0.271516 -0.16409634
-0.3815296 0.036563557 0.00054750725 -0.09471701 0.14949827 -0.13541476 -0.018145736 0.24608213
-0.20113102 0.34797022 1.7905774 0.10113296 -0.37403744 -0.64092875 -0.59411716 -0.5934956
0.07493232 -0.27087688 -0.4367848 1.0842012 0.11348916 -0.29949495 1.0593572 -0.13466379
-0.5086108 0.1532042 1.2185279 -0.08282885 -0.562718 -0.20561452 0.46015292 0.314214
0.2502853 -0.23952998 1.2715032 -0.069040865 -0.5087656 0.25774625 -0.4251708 0.66356945
0.2027528 0.012361895 -0.59057355 0.13751258 -0.108500086 -0.32843992 0.037228376 0.36028454
-0.018430581 0.70664316 -0.2969074 2.0503442 -1.3356212 0.09950209 -0.00781997 -0.21660236
-0.07499569 -0.0831884 -0.03280031 -0.029418593 0.5778349 0.29946253 0.13598348 0.6839176
-0.079593934 -0.121596895 -0.20894678 -0.16837662 -0.041741148 0.0039506005 -0.091482475 -0.076112844
-0.4618292 -0.50511503 0.77128136 0.27836537 0.06562582 -0.44329047 -0.015107966 -0.19050735
-0.22202289 -0.13202381 0.27186647 0.6459548 0.056934882 0.12930618 -0.13383508 -0.115442954
-0.29028296 0.109047554 -0.08000067 0.51047945 0.2591567 -0.22321206 0.106583804 -0.08387503
0.06948456 0.14844057 0.12035549 0.1452634 0.086742245 0.39815876 -0.077114716 0.975714
-0.2762487 0.51008075 0.140631 -0.38030034 -0.060696352 -0.08494027 -0.075652204 0.07478674
-0.03531051 0.12281151 -0.37976342 0.57987946 -0.07566916 0.11218294 -0.29759696 0.53930616
-0.16687493 0.513191 -0.05479004 -0.52134085 0.3367341 0.38017708 0.2327305 -0.02061057
-0.5150743 -0.13924854 -0.049441945 -0.05017103 -0.33864665 -0.27216956 -0.030193347 0.043304767
-0.113251716 -0.7944687 -0.10675829 -0.12204731 -0.46876958 0.013687869 -0.70575625 0.25782403
-0.01607521 0.16811481 0.08152223 -0.096375965 -0.3965293 -0.17013161 1.894853 0.006040137
-0.4253164 0.055836808 -0.37184384 0.09071326 0.09788021 -0.653357 0.11444133 -0.09798952
0.07477025 -0.17086603 0.2735357 -0.34839287 -0.037384845 -0.08966259 0.060768586 -0.04882209
-0.32404068 0.41115615 0.059872918 0.086568214 -0.11684833 0.2597488 0.9441997 -0.26434103
-0.39816073 0.2515514 -0.2189373 -0.091391265 0.23759276 -0.31094742 -0.4336127 -0.28900772
0.87559503 0.14313592 -0.22421095 -0.087039284 0.6674662 0.5189979 -2.558327 -0.68643373
0.40221727 -0.07031859 -0.073415674 -0.09019151 -0.18914682 0.6451399 -0.014934957 0.0480801
0.48978344 -0.47892398 0.55719525 -0.035373695 0.11149793 0.4575184 0.37894222 0.29693517
-0.022407139 0.8589831 0.61312586 -0.020430218 0.900154 0.33598566 -0.30867335 -0.35997733
-0.033394247 -0.33217543 -0.318959 4.048524e-05 0.19214018 0.5126288 0.15690541 0.5016928
-0.396764 0.52260995 0.118235275 -0.060174543 0.32092977 0.50070655 -0.13718313 0.5982402
0.33923307 0.034249514 0.74323076 -0.15078607 0.40511122 0.61191154 0.12780887 0.047302864
0.2703197 0.60905343 -0.2074712 0.35328656 -0.20011957 -0.02605572 0.84204984 0.20673253
00000000: 1cab d93e 28e4 583d fa68 9dbe ad4f dabc
00000010: afaf ddbd 07e0 893d 2504 8b3e df08 28be
00000020: d957 c3be abc3 153d 9786 0f3a fefa c1bd
00000030: 1316 193e 2baa 0abe 5ea6 94bc f4fc 7b3e
00000040: 4af5 4dbe 2729 b23e a431 e53f cc1e cf3d
00000050: d681 bfbe e813 24bf 1018 18bf 54ef 17bf
00000060: 1e76 993d 60b0 8abe 42a2 dfbe 1bc7 8a3f
00000070: 016d e83d 6757 99be 0499 873f 4ee5 09be
00000080: 5134 02bf 90e1 1c3e b9f8 9b3f 2ca2 a9bd
00000090: 490e 10bf 9d8c 52be 2a99 eb3e a8e0 a03e
000000a0: 6525 803e 5947 75be 9ec0 a23f 4c65 8dbd
000000b0: 763e 02bf 51f7 833e fdaf d9be b0df 293f
000000c0: 6e9e 4f3e 8c89 4a3c d42f 17bf 19d0 0c3e
000000d0: 4b35 debd 4729 a8be c87c 183d 3777 b83e
000000e0: bbfb 96bc 91e6 343f 3f04 98be d738 0340
000000f0: a3f5 aabf c0c7 cb3d 551f 00bc 02cd 5dbe
00000100: 5797 99bd ae5e aabd 9e59 06bd 43ff f0bc
00000110: fdec 133f 2753 993e 413f 0b3e 3915 2f3f
00000120: 2502 a3bd cb07 f9bd 25f6 55be ec6a 2cbe
00000130: c4f8 2abd 0a74 813b 2a5b bbbd 0de1 9bbd
00000140: e074 ecbe 384f 01bf b272 453f e885 8e3e
00000150: d466 863d f8f6 e2be 6787 77bc 5c14 43be
00000160: f859 63be 4031 07be 1532 8b3e 4b5d 253f
00000170: 8d34 693d d768 043e 100c 09be 5b6d ecbd
00000180: f89f 94be 5354 df3d 64d7 a3bd c8ae 023f
00000190: 30b0 843e b491 64be 9c48 da3d acc6 abbd
000001a0: ec4d 8e3d ce00 183e f07c f63d eebf 143e
000001b0: eba5 b13d 77db cb3e 52ee 9dbd 65c8 793f
000001c0: 7870 8dbe a794 023f 9301 103e bab6 c2be
000001d0: bd9c 78bd 2af5 adbd 8bef 9abd ca29 993d
000001e0: c1a1 10bd 9a84 fb3d 5a70 c2be fb72 143f
000001f0: 6ff8 9abd 2bc0 e53d a15e 98be f80f 0a3f
00000200: 43e1 2abe 7c60 033f 856b 60bd 9876 05bf
00000210: 6968 ac3e 92a6 c23e e750 6e3e 80d7 a8bc
00000220: e9db 03bf 2b97 0ebe a383 4abd 2380 4dbd
00000230: 1863 adbe cf59 8bbe 0a58 f7bc 5760 313d
00000240: 84f0 e7bd 4d62 4bbf 17a4 dabd f1f3 f9bd
00000250: 9102 f0be 1543 603c 71ac 34bf 8301 843e
00000260: 29b0 83bc 4a26 2c3e 20f5 a63d c360 c5bd
00000270: e305 cbbe fb36 2ebe 8b8a f23f 57ec c53b
00000280: 12c3 d9be 23b5 643d 5162 bebe e0c7 b93d
00000290: 6b75 c83d 6842 27bf 3760 ea3d bbae c8bd
000002a0: 2521 993d 81f7 2ebe df0c 8c3e 8d60 b2be
000002b0: da20 19bd 05a1 b7bd 7be8 783d acf9 47bd
000002c0: a9e8 a5be 0f83 d23e 4e3d 753d ad4a b13d
000002d0: 2d4e efbd cbfd 843e 12b7 713f b557 87be
000002e0: b9db cbbe 58cb 803e 1931 60be 582b bbbd
000002f0: 844b 733e 8034 9fbe 7c02 debe d2f8 93be
00000300: ff26 603f 3992 123e 8e97 65be a741 b2bd
00000310: 11df 2a3f 0cdd 043f a1bb 23c0 1fba 2fbf
00000320: 6cef cd3e 3103 90bd f55a 96bd 54b6 b8bd
00000330: b4af 41be e327 253f c0b1 74bc a4ef 443d
00000340: e5c4 fa3e 8635 f5be 59a4 0e3f 02e4 10bd
00000350: 0759 e43d da3f ea3e b704 c23e e307 983e
00000360: 2d8f b7bc 51e6 5b3f d1f5 1c3f 465d a7bc
00000370: 7e70 663f 5006 ac3e 6f0a 9ebe f34e b8be
00000380: 68c8 08bd e612 aabe 984e a3be b2ce 2938
00000390: 65c0 443e a43b 033f d0ab 203e f06e 003f
000003a0: a724 cbbe c4c9 053f 5625 f23d 9579 76bd
000003b0: e850 a43e 4e2e 003f bc79 0cbe 4526 193f
000003c0: f5af ad3e 3849 0c3d 5f44 3e3f aa67 1abe
000003d0: bd6a cf3e 3ca6 1c3f 54e0 023e a6c0 413d
000003e0: 5867 8a3e edea 1b3f 5573 54be fae1 b43e
000003f0: 25ec 4cbe ce72 d5bc 9490 573f b1b1 533e

se_block_event.0.0.bias f4 [16]
-0.12655593 -1.8320543 -0.28911126 0.5315046 -0.35334685 0.4160153 -0.6725887 -0.061798602
-0.4442717 -1.5331051 0.0970009 1.3202783 -0.48475102 -1.1604106 0.026629962 -0.17266177
00000000: e197 01be c180 eabf 6406 94be af10 083f
00000010: e1e9 b4be f5ff d43e c62e 2cbf 8820 7dbd
00000020: 9577 e3be ca3c c4bf 68a8 c63d e1fe a83f
00000030: 4931 f8be 5688 94bf 1427 da3c 3fce 30be

se_block_event.0.2.weight f4 [64, 16]
0.67225134 -0.056918733 0.39710248 0.8816591 0.17198862 0.080055244 0.9887222 0.105854325
0.67415714 0.7638496 0.3840129 0.6234026 0.5753956 -0.22148101 -0.088183664 1.0003506
-0.07266717 0.62326884 -0.47154108 -0.44915715 0.4203092 -0.4073274 -0.334681 0.06104674
0.0065107374 0.97694224 -0.5349293 0.36537692 -0.36764622 0.44862828 -0.23576798 0.23337644
0.04700158 0.10821791 0.12059768 0.785461 -0.5177719 -0.6390536 -0.005399571 -0.29544127
0.27723664 0.15940022 0.046287272 0.6697026 0.6570435 -0.07742758 0.16969278 0.34047806
0.47428823 -0.12713723 0.24352165 0.3486135 -0.4125756 -0.13654666 0.08943622 -0.40524736
0.06140842 0.1686277 0.36195645 -0.37972328 -0.44930705 -0.3860838 -0.4257537 0.9565015
0.48936668 0.22739427 0.34270445 1.3616322 -0.40807816 -0.09003229 0.57783306 0.06103839
0.7443899 0.67849284 0.51035887 1.1323988 0.8662073 0.28887346 1.1907909 1.51918
0.6995565 0.12075591 -0.09243958 0.41342336 -0.13517392 0.25431848 0.41142982 -0.30854204
0.55264044 0.71959823 0.13026574 0.2922203 0.79204875 -0.17181498 0.2423648 1.3112625
-0.3365183 0.27630925 -0.5377137 -1.2389933 -1.2206107 0.025044093 -1.1294612 -0.49250174
-0.63005733 0.34273958 -0.07869144 0.49675253 -0.93045115 -0.021496851 -0.1825057 0.3461557
1.3073778 0.780037 1.024703 1.0849775 0.28662857 0.6341943 0.71891826 0.275632
0.12706408 0.28734872 0.41357 1.045716 0.709668 0.45490953 0.81934035 1.5804453
0.62496305 0.55451775 1.1216669 0.86730695 0.35617685 0.5422109 0.8975598 0.23080756
1.1317627 0.02005554 0.4727777 1.1123719 0.76722646 0.5509363 1.2272924 0.6631781
-1.3476074 0.60872996 0.37893865 2.3792198 1.0591011 2.0007088 -0.03347072 0.97253937
1.2501473 0.24442697 -0.6706392 0.09823726 0.78408355 0.8374438 -0.3164332 -1.7307419
-0.40758908 1.3131282 -0.064572446 -0.030050788 -0.29715744 0.54767025 0.15220957 0.0837589
-0.52703756 0.4973096 -0.68330526 -0.04969734 0.07103675 0.25404122 0.13552389 0.17353623
-0.31827888 0.898775 -0.07476853 0.008645079 0.016935635 -0.18075188 0.18535452 -0.020035122
-0.12418331 0.04758533 0.04201317 0.61516577 -0.07266771 -0.046818275 0.0045220014 0.04154398
0.051372167 0.007201143 0.51800376 0.67494667 -0.016059564 0.30389524 0.7189704 0.09652779
0.27951 -0.122954145 0.2023259 0.72560924 0.5524117 0.36610967 0.35938483 0.24082196
0.6964434 0.38764706 0.7209084 0.34053427 -0.4550931 0.08638231 1.3969694 0.008482088
0.53612417 0.08306697 0.20522977 0.41930377 0.5031132 0.0111481305 0.1283187 0.57504505
0.11773446 0.14786595 0.18062358 0.15469547 0.1292165 -0.08794587 0.17561853 -0.093715295
0.21612236 0.13099164 0.11956774 0.11946193 -0.14035834 0.17483884 -0.16621225 0.015721776
-0.4722702 1.1761681 0.12719952 0.83189124 0.765479 1.0160106 0.27280748 1.1050338
0.6892431 0.58103204 -0.22172526 0.6706388 0.5245802 0.6946155 1.2477356 0.29841068
00000000: aa18 2c3f 9e23 69bd 0451 cb3e 69b4 613f
00000010: c91d 303e 01f4 a33d e61c 7d3f 27ca d83d
00000020: 9095 2c3f a68b 433f 579d c43e 5097 1f3f
00000030: 204d 133f ebcb 62be a399 b4bd 7d0b 803f
00000040: 86d2 94bd 8c8e 1f3f d56d f1be edf7 e5be
00000050: c432 d73e 388d d0be 4f5b abbe 250c 7a3d
00000060: 0658 d53b e318 7a3f 20f1 08bf af12 bb3e
00000070: 203c bcbe 9bb2 e53e 296d 71be 3cfa 6e3e
00000080: bb84 403d 5aa1 dd3d ebfb f63d f913 493f
00000090: b38c 04bf 0499 23bf e2ee b0bb 1444 97be
000000a0: f6f1 8d3e d039 233e b997 3d3d a171 2b3f
000000b0: 0134 283f 5a92 9ebd f2c3 2d3e 2453 ae3e
000000c0: e8d5 f23e 4330 02be bd5d 793e 787d b23e
000000d0: 1c3d d3be e3d2 0bbe 562a b73d 957c cfbe
000000e0: 6587 7b3d bdac 2c3e 5b52 b93e 176b c2be
000000f0: 930b e6be c7ac c5be 64fc d9be 48dd 743f
00000100: 458e fa3e 0bda 683e f576 af3e f749 ae3f
00000110: 9fef d0be d962 b8bd deec 133f 6403 7a3d
00000120: 5690 3e3f b5b1 2d3f e1a6 023f 72f2 903f
00000130: c3bf 5d3f 39e7 933e d66b 983f 7e74 c23f
00000140: 2316 333f e04e f73d f650 bdbd 3aac d33e
00000150: 086b 0abe 0836 823e eea6 d23e 39f9 9dbe
00000160: d879 0d3f 9737 383f 6264 053e e69d 953e
00000170: b5c3 4a3f 44f0 2fbe 7a2e 783e 73d7 a73f
00000180: 204c acbe 6878 8d3e 9ba7 09bf 5597 9ebf
00000190: f93c 9cbf 4529 cd3c 2f92 90bf 3029 fcbe
000001a0: 704b 21bf 907b af3e fa28 a1bd 5956 fe3e
000001b0: 0c32 6ebf 2a1a b0bc c6e2 3abe 523b b13e
000001c0: 2858 a73f 81b0 473f 7829 833f 8be0 8a3f
000001d0: fbc0 923e 8f5a 223f 070b 383f a31f 8d3e
000001e0: 161d 023e 5f1f 933e 72bf d33e 06da 853f
000001f0: cdac 353f e7e9 e83e 4ac0 513f 084c ca3f
00000200: 94fd 1f3f e0f4 0d3f c892 8f3f d407 5e3f
00000210: d05c b63e 55ce 0a3f 7bc6 653f d158 6c3e
00000220: 9add 903f 844b a43c eb0f f23e 3462 8e3f
00000230: f468 443f 290a 0d3f eb17 9d3f 0ac6 293f
00000240: 667e acbf bad5 1b3f 3f04 c23e 2345 1840
00000250: a090 873f 9d0b 0040 9818 09bd 57f8 783f
00000260: d404 a03f 104b 7a3e 03af 2bbf 9e30 c93d
00000270: b3b9 483f b862 563f 8803 a2be f388 ddbf
00000280: 84af d0be 9614 a83f 8f3e 84bd 122d f6bc
00000290: 0525 98be 1e34 0c3f d3dc 1b3e c989 ab3d
000002a0: efeb 06bf 5d9f fe3e 18ed 2ebf 708f 4bbd
000002b0: b77b 913d b111 823e c6c6 0a3e 7bb3 313e
000002c0: 73f5 a2be 1e16 663f 3e20 99bd 17a4 0d3c
000002d0: 9abc 8a3c 0517 39be 93cd 3d3e b220 a4bc
000002e0: d253 febd d6e8 423d 0016 2c3d 817b 1d3f
000002f0: cfd2 94bd 85c4 3fbd 4c2d 943b 052a 2a3d
00000300: 9f6b 523d 91f7 eb3b e59b 043f 4ec9 2c3f
00000310: 598f 83bc 2898 9b3e 720e 383f 5db0 c53d
00000320: ef1b 8f3e 62cf fbbd 852e 4f3e 87c1 393f
00000330: da6a 0d3f ba72 bb3e 4a01 b83e 089a 763e
00000340: 1d4a 323f ad79 c63e 748d 383f 825a ae3e
00000350: f601 e9be 35e9 b03d e5cf b23f 75f8 0a3c
00000360: 6f3f 093f 041f aa3d c127 523e fcae d63e
00000370: 07cc 003f a6a6 363c fa65 033e 2736 133f
00000380: c41e f13d 2c6a 173e 63f5 383e 7d68 1e3e
00000390: 5551 043e f71c b4bd 58d5 333e ceed bfbd
000003a0: 2e4f 5d3e ac22 063e eedf f43d 75a8 f43d
000003b0: 19ba 0fbe f408 333e 8b33 2abe f4ca 803c
000003c0: 66cd f1be ad8c 963f 9740 023e d3f6 543f
000003d0: 6ff6 433f a30c 823f 6cad 8b3e bf71 8d3f
000003e0: 3c72 303f 84be 143f f20b 63be fcae 2b3f
000003f0: e34a 063f 52d2 313f cdb5 9f3f 49c9 983e

se_block_event.0.2.bias f4 [64]
0.32159913 -0.087302186 -0.26324812 -0.27334303 0.5259344 -0.29993474 0.21101598 0.68270814
0.37924328 -0.2603432 -0.32839984 -0.48914784 0.30615065 0.20735571 -0.15850578 0.015878828
0.060746644 0.030497726 -0.5461689 0.2117294 1.1560527 0.5129754 0.51806027 -0.54565734
-0.64409214 0.6487355 0.23010257 -0.5489325 0.18086612 0.3115568 -0.5186706 0.018170826
-0.04330261 -0.05625999 -1.271624 0.26604804 -0.55652535 -0.3401996 -0.56680685 -0.21272296
0.44673958 0.019647367 -0.10781223 -0.09272012 0.50889283 -0.51769966 -0.057596937 0.53813976
-0.06701653 0.2543423 0.47941187 -0.06981109 0.3705484 -0.105781846 0.025938978 -0.57850033
0.25977185 0.23304543 0.7891854 -1.2178226 -0.37147826 0.26424143 -0.03428728 0.33780053
00000000: a4a8 a43e 7dcb b2bd 75c8 86be 9ef3 8bbe
00000010: a3a3 063f 0c91 99be 9314 583e f6c5 2e3f
00000020: 2d2c c23e b44b 85be 0624 a8be 9671 fabe
00000030: c7bf 9c3e 0e55 543e 574f 22be 5114 823c
00000040: 79d1 783d 5ed6 f93c bad1 0bbf 98cf 583e
00000050: 89f9 933f 5b52 033f 999f 043f 33b0 0bbf
00000060: 39e3 24bf 8813 263f 02a0 6b3e d786 0cbf
00000070: f834 393e 5f84 9f3e 99c7 04bf fcda 943c
00000080: 145e 31bd e070 66bd 93c4 a2bf 7337 883e
00000090: 7278 0ebf a42e aebe 411a 11bf 0cd4 59be
000000a0: 0dbb e43e 84f3 a03c a9cc dcbd 0ce4 bdbd
000000b0: cd46 023f f787 04bf c4ea 6bbd 87c3 093f
000000c0: f63f 89bd 2739 823e 7975 f53e 1ef9 8ebd
000000d0: 85b8 bd3e 27a4 d8bd fb7d d43c 9918 14bf
000000e0: d100 853e 76a3 6e3e 0e08 4a3f 9ce1 9bbf
000000f0: 6632 bebe a74a 873e d270 0cbd 31f4 ac3e

se_block_event.1.0.weight f4 [16, 64]
1.6503537 0.3413459 0.6432167 1.2948467 1.3446285 1.6744889 -0.2603785 1.6446909
0.37773272 0.15892138 -0.09597524 0.013857187 0.44106418 0.94942546 0.008398981 -0.18475167
1.6060872 0.18879353 0.7029817 0.3265984 0.9870389 1.9012287 1.0936575 0.3432642
-0.037087463 1.6768184 0.3166403 0.1915441 1.1395504 1.3325176 0.02672488 0.13438982
0.8164844 0.83122057 -0.025924815 0.5657143 1.4221538 0.8741941 0.9375067 0.9042255
0.076803975 0.85223824 0.24845459 0.72512203 1.2941719 2.027141 1.4056523 0.9972538
1.0007209 0.4826678 1.3774601 0.91793346 0.48637605 1.4390186 0.97988355 0.22878748
1.0486199 1.9466503 1.3801467 0.7251023 0.28516018 1.0666076 1.2612786 1.0641567
0.04760061 0.23728673 -0.7789649 0.022429876 -0.61193943 -0.39294812 0.006040169 -1.1398706
-0.68171287 0.062343683 -0.020047978 -0.014419831 -0.06991267 -0.42131937 -0.05753432 0.42841762
-0.657004 0.508958 1.5252181 0.31977835 -0.79926777 -2.3789275 -1.253704 -0.5105911
0.04173874 0.09629702 -1.035244 0.89409053 -0.67001563 -1.2696836 2.2652996 -0.23633757
-0.59091437 -0.9449099 1.6099749 -0.85910773 -0.9773301 -0.77097493 -0.7738202 -0.6191355
0.2816582 -0.6474343 0.6548835 -0.38320994 -1.3211893 -0.8319114 -0.53674585 0.29105228
-0.25685897 0.4235129 -1.4206113 -0.37322494 -0.27129477 -1.1957456 0.4650203 0.4812303
-0.98519003 -0.8358298 -0.6034027 1.7377055 0.51521873 -1.2365876 -0.72167057 -0.10434851
0.08184117 -0.3785 -0.46558362 -0.76577985 -0.22669567 -0.71245146 -0.29382023 -0.04513514
-0.73426425 0.020292269 0.027702207 0.07606817 0.1258475 -0.27171573 -0.14119123 -0.082079425
-0.7412358 0.33446887 0.11064165 0.19257528 -0.80482686 -0.38291752 0.008271099 -0.22737512
0.041072723 -0.009085292 -0.29688346 0.088292725 -0.103077844 -0.631774 -0.8697124 -0.10674029
-0.34567365 -0.43784678 1.1258742 -0.23702715 -0.16965157 -0.10371437 -0.35903716 -0.6194915
-0.05747066 -0.83282495 -0.048773516 -0.29020265 0.2567092 -0.35611278 -0.7318436 -0.33520564
0.15116279 0.11314519 -0.41693512 -0.14463235 -0.4923963 -1.2636963 -0.32148108 0.1072412
-0.34324375 -0.82298464 -0.5602177 -0.12610713 0.43277884 -0.36223322 -0.8958161 -0.061209712
1.8038111 0.4399332 0.74253225 0.982209 0.82856774 1.4618446 -0.060917042 1.2919948
0.7339673 0.0063902275 -0.16313249 -0.117045134 0.8639479 0.44959456 0.14618075 -0.14266859
1.3216883 -0.0660418 0.70949394 0.31917468 1.5850992 2.3105948 1.6498379 0.15758407
-0.025062514 1.0582588 0.5026467 0.2444099 1.3422637 0.9864784 -0.07142917 0.0032720217
0.7025957 0.80390525 -0.003611224 0.88400215 0.8116909 1.1865181 0.67972374 0.8453431
0.006027576 0.3941225 0.78263664 0.6240233 0.48493212 1.3642449 1.2055273 0.9889362
0.83526397 0.54653686 0.9372007 0.38317165 0.80780876 0.89550924 0.2036477 0.019428894
0.82556677 1.3483853 1.0861431 0.3998367 0.12494498 0.35693747 1.3709787 1.4254092
00000000: ca3e d33f e4c4 ae3e daa9 243f 89bd a53f
00000010: c91c ac3f a755 d63f 5550 85be 3b85 d23f
00000020: 2f66 c13e 49bc 223e ab8e c4bd 4109 633c
00000030: 2ad3 e13e 8c0d 733f e19b 093c 8b2f 3dbe
00000040: 4494 cd3f 1753 413e 9cf6 333f e837 a73e
00000050: 95ae 7c3f 765b f33f f8fc 8b3f 53c0 af3e
00000060: 06e9 17bd fca1 d63f ad1e a23e 2324 443e
00000070: cadc 913f f08f aa3f 23ee da3c 7c9d 093e
00000080: 1f05 513f dfca 543f 4760 d4bc a7d2 103f
00000090: 2309 b63f 2fcb 5f3f 7000 703f 537b 673f
000000a0: 674b 9d3d 492c 5a3f e16a 7e3e 99a1 393f
000000b0: 6da7 a53f aebc 0140 6aec b33f 064c 7f3f
000000c0: 9f17 803f 3c20 f73e 9d50 b03f b0fd 6a3f
000000d0: 4806 f93e c331 b83f a6d9 7a3f 4447 6a3e
000000e0: 2d39 863f d62b f93f a6a8 b03f 4ea0 393f
000000f0: 8400 923e 9986 883f 9471 a13f 4936 883f
00000100: dbf8 423d 4bfb 723e 3e6a 47bf dcbe b73c
00000110: 10a8 1cbf 7f30 c9be 9cec c53b 48e7 91bf
00000120: bc84 2ebf 175c 7f3d a83b a4bc 2841 6cbc
00000130: 602e 8fbd 2cb7 d7be 1ba9 6bbd 8e59 db3e
00000140: 6a31 28bf 124b 023f 593a c33f fdb9 a33e
00000150: d09c 4cbf 5940 18c0 5f79 a0bf 19b6 02bf
00000160: 3ef6 2a3d 5f37 c53d e082 84bf 1ee3 643f
00000170: 2586 2bbf fe84 a2bf abfa 1040 7a02 72be
00000180: 2a46 17bf 9de5 71bf a813 ce3f 7cee 5bbf
00000190: 4e32 7abf 9d5e 45bf 1519 46bf aa7f 1ebf
000001a0: 8135 903e 41be 25bf 72a6 273f 1834 c4be
000001b0: bb1c a9bf 25f8 54bf 2d68 09bf ce04 953e
000001c0: 0583 83be afd6 d83e 97d6 b5bf 5717 bfbe
000001d0: 26e7 8abe 310e 99bf 2417 ee3e d163 f63e
000001e0: 6a35 7cbf f1f8 55bf 9978 1abf 226d de3f
000001f0: 60e5 033f 8148 9ebf 67bf 38bf acb4 d5bd
00000200: 589c a73d c1ca c1be fa60 eebe 260a 44bf
00000210: e922 68be 3863 36bf 9b6f 96be a0df 38bd
00000220: bef8 3bbf f93b a63c bdef e23c a1c9 9b3d
00000230: 2bde 003e 531e 8bbe 6f94 10be 4219 a8bd
00000240: a1c1 3dbf 813f ab3e 1798 e23d 7432 453e
00000250: 2209 4ebf c40d c4be 8183 073c 06d5 68be
00000260: df3b 283d 7ada 14bc 1c01 98be d1d2 b43d
00000270: 7a1a d3bd f1bb 21bf 79a5 5ebf a79a dabd
00000280: 23fc b0be 742d e0be a51c 903f 3fb7 72be
00000290: 24b9 2dbe 3368 d4bd b8d3 b7be ff96 1ebf
000002a0: 5b66 6bbd 0434 55bf bdc6 47bd 7195 94be
000002b0: 636f 833e 6a54 b6be 1a5a 3bbf 13a0 abbe
000002c0: 6bca 1a3e aab8 e73d 8578 d5be 811a 14be
000002d0: 5e1b fcbe cdc0 a1bf 2b99 a4be 46a1 db3d
000002e0: a5bd afbe 1faf 52bf 6d6a 0fbf 3a22 01be
000002f0: 3095 dd3e a276 b9be 3454 65bf 09b7 7abd
00000300: 48e3 e63f ed3e e13e 9816 3e3f 0d72 7b3f
00000310: 041d 543f b91d bb3f 2684 79bd 1660 a53f
00000320: 48e5 3b3f 1d65 d13b 340c 27be 5cb5 efbd
00000330: b12b 5d3f 4231 e63e 68b0 153e b717 12be
00000340: 152d a93f ec40 87bd 65a1 353f dd6a a33e
00000350: 88e4 ca3f c9e0 1340 e32d d33f b85d 213e
00000360: e74f cdbc 0675 873f 74ad 003f 9746 7a3e
00000370: 4ccf ab3f d989 7c3f 7549 92bd 6a6f 563b
00000380: 50dd 333f bccc 4d3f 49aa 6cbb f74d 623f
00000390: faca 4f3f d3df 973f 6002 2e3f 6868 583f
000003a0: f982 c53b 6dca c93e e05a 483f febf 1f3f
000003b0: 0649 f83e 949f ae3f b84e 9a3f ec2a 7d3f
000003c0: dcd3 553f d7e9 0b3f 63ec 6f3f 132f c43e
000003d0: 8ecc 4e3f 1840 653f 0689 503e 5829 9f3c
000003e0: 5858 533f e497 ac3f bd06 8b3f 65b7 cc3e
000003f0: 27e3 ff3d 82c0 b63e 3b7c af3f cf73 b63f

se_block_event.1.0.bias f4 [16]
-3.2311978 0.58819026 -0.5783447 -3.039923 -1.0078965 -2.4699452 0.51888394 -2.7358985
-2.7059228 -2.5260901 -2.7981958 -2.9214356 -2.957559 -2.5468345 -2.4897964 -0.8937209
00000000: f2cb 4ec0 a393 163f 660e 14bf 198e 42c0
00000010: c102 81bf 9513 1ec0 94d5 043f f618 2fc0
00000020: d72d 2dc0 76ab 21c0 a415 33c0 cdf8 3ac0
00000030: a648 3dc0 56ff 22c0 d358 1fc0 e5ca 64bf

se_block_event.1.2.weight f4 [64, 16]
1.7307707 0.091150165 0.5470211 2.09682 1.0233961 1.2289506 0.18532285 1.2414966
0.8125907 1.2603629 0.7445321 1.7626218 1.2219889 1.3443332 1.0469643 0.784994
1.0284026 -0.424003 0.46017966 0.9068903 -0.8538353 1.4311953 -0.85556304 0.4892488
0.527065 0.57203186 1.5515333 1.2576721 1.0859239 0.2567187 1.179179 0.12763274
0.26648113 0.84436584 0.37733218 -0.007390339 0.65297014 0.23956333 0.7789567 0.70302314
0.73318964 -0.037859943 0.30370387 0.338956 0.24564777 -0.10936262 0.5557082 0.7105938
0.13033696 1.0349545 0.4811714 0.4459026 0.99276537 0.39062744 1.3606524 -0.14399941
0.57245934 0.15906122 0.23966968 0.5197332 0.101667166 0.5246879 0.4070065 0.78691834
1.1776417 0.44785565 0.40571833 0.8352654 0.79880756 1.2468743 0.63981533 0.7959533
1.6662077 1.2145314 0.82480794 1.0792946 0.45686945 0.47677478 0.3485934 0.93092155
0.664474 1.4492527 0.737841 0.2627859 1.2823416 0.15558182 1.4172983 0.4576406
0.5157701 0.07965691 0.1443989 0.111559995 0.58468133 0.3914056 0.16147798 1.4139065
0.69555473 -0.39848232 1.1652124 0.44594184 0.5148195 1.2330899 -0.7699345 1.0010817
1.4739119 0.8178547 -0.1405818 1.399336 0.93141633 -0.7339816 1.3711871 -1.0427972
0.58460784 1.798002 1.0876492 0.17055814 0.46248853 0.373898 1.5508549 0.45755884
0.14780939 0.23963888 0.46655074 0.35926765 0.914879 0.45059475 0.35959542 0.90173185
0.0885501 0.6001146 0.90645486 0.32230815 1.3987219 0.37679896 0.85794485 1.0803105
0.3111216 0.4541184 0.2526305 0.6805892 0.5798716 0.46994528 0.3487122 0.9343945
0.59203583 -0.5948521 -0.15243118 0.20932145 0.8499386 0.10816669 -0.30316514 1.0605295
1.2973064 1.8934072 0.35009715 0.39447346 1.2049457 0.97680265 -0.2269558 0.9672746
0.8019654 -0.7501194 0.086759314 1.5499998 1.6118244 0.37547484 -0.37262872 0.61149585
1.0305188 1.3649542 1.2275807 0.7793004 0.9814796 1.4499668 0.9847968 1.1420864
1.322398 -1.0965618 -0.54560584 1.0787138 0.48891214 1.3195399 -0.3506194 1.1914476
0.83425784 1.16756 1.1300229 0.7129682 1.4341314 1.2923187 1.6263222 1.1112429
0.35129842 0.5435009 0.42466643 0.4914458 0.45133132 0.6229435 0.46850032 0.87863106
0.575419 0.5420352 0.06819052 0.55973506 0.113316275 0.29195806 0.39213762 0.254068
0.024773173 1.4139398 0.68356514 -0.029445207 -0.39712524 -0.064255044 0.99063206 0.35673404
0.348746 -0.16050473 0.8051887 0.2850807 0.2369277 0.49591666 0.21299326 0.11184396
0.046016213 -0.09834152 0.08523253 -0.16656171 -0.0012515151 0.21924096 0.191277 -0.06426227
-0.17768274 -0.23359777 -0.18987769 -0.22102746 0.2254529 -0.014407756 -0.022243675 -0.21243393
0.16707347 -0.34935704 -0.14984947 0.43551275 0.7768551 0.43747997 0.10899685 0.43594414
0.7248283 0.20506462 0.33750764 0.9533673 0.33955124 1.066996 0.5069176 0.19555072
00000000: e589 dd3f f0ac ba3d 9309 0c3f 4d32 0640
00000010: a5fe 823f 414e 9d3f 46c5 3d3e 5ce9 9e3f
00000020: f205 503f 9253 a13f a899 3e3f 979d e13f
00000030: 226a 9c3f 1c13 ac3f ed02 863f 5ef5 483f
00000040: b2a2 833f ec16 d9be ab9c eb3e f629 683f
00000050: f394 5abf 6831 b73f 2e06 5bbf d27e fa3e
00000060: bbed 063f ae70 123f a598 c63f 66fb a03f
00000070: 8eff 8a3f a270 833e 56ef 963f 28b2 023e
00000080: 3770 883e 5c28 583f af31 c13e a82a f2bb
00000090: 0d29 273f 1750 753e b569 473f 53f9 333f
000000a0: 51b2 3b3f 0713 1bbd 137f 9b3e a48b ad3e
000000b0: 178b 7b3e 82f9 dfbd e542 0e3f 7ae9 353f
000000c0: 0d77 053e 6479 843f 195c f63e 584d e43e
000000d0: df25 7e3f 5200 c83e dc29 ae3f 9574 13be
000000e0: b28c 123f f2e0 223e f86b 753e 3c0d 053f
000000f0: e036 d03d f251 063f 2863 d03e 7b73 493f
00000100: f7bc 963f 564d e53e 50ba cf3e f4d3 553f
00000110: a77e 4c3f 9499 9f3f f0ca 233f 98c3 4b3f
00000120: 4b46 d53f c475 9b3f 9d26 533f 5326 8a3f
00000130: cbea e93e d31b f43e d67a b23e e050 6e3f
00000140: f81a 2a3f 1d81 b93f 26e3 3c3f e08b 863e
00000150: c523 a43f d750 1f3e 086a b53f de4f ea3e
00000160: 8209 043f 2923 a33d 4edd 133e 9179 e43d
00000170: adad 153f 5166 c83e 7c5a 253e e3fa b43f
00000180: e00f 323f e005 ccbe ae25 953f 7d52 e43e
00000190: 36cb 033f e4d5 9d3f 6d1a 45bf 7223 803f
000001a0: 25a9 bc3f ed5e 513f adf4 0fbe 711d b33f
000001b0: 4d71 6e3f 38e6 3bbf 0f83 af3f 617a 85bf
000001c0: dca8 153f ee24 e63f 1738 8b3f cba6 2e3e
000001d0: 4ccb ec3e 8f6f bf3e 6a82 c63f 2745 ea3e
000001e0: 585b 173e e563 753e bddf ee3e eef1 b73e
000001f0: 8335 6a3f 5bb4 e63e e41c b83e e6d7 663f
00000200: c159 b53d 1ca1 193f 6d0d 683f 9305 a53e
00000210: 5209 b33f cbeb c03e 46a2 5b3f 9d47 8a3f
00000220: 554b 9f3e 3582 e83e c958 813e 183b 2e3f
00000230: 7772 143f ab9c f03e 688a b23e 7a34 6f3f
00000240: a98f 173f 3a48 18bf eb16 1cbe 5d58 563e
00000250: 9395 593f 7f86 dd3d 7638 9bbe 6ebf 873f
00000260: 230e a63f 2b5b f23f ef3f b33e 6df8 c93e
00000270: a93b 9a3f bd0f 7a3f 1a67 68be 4f9f 773f
00000280: 9b4d 4d3f d307 40bf deae b13d 6566 c63f
00000290: 4350 ce3f 3d3e c03e 31c9 bebe fe8a 1c3f
000002a0: 0ae8 833f d2b6 ae3f 5d21 9d3f 3b80 473f
000002b0: 3f42 7b3f 8398 b93f a51b 7c3f e32f 923f
000002c0: 5644 a93f 235c 8cbf d3ac 0bbf 4b13 8a3f
000002d0: b152 fa3e afe6 a83f 6384 b3be 5b81 983f
000002e0: ec91 553f 9b72 953f 97a4 903f 1585 363f
000002f0: 9e91 b73f b36a a53f 532b d03f 353d 8e3f
00000300: 63dd b33e e022 0b3f e16d d93e c99e fb3e
00000310: e614 e73e 3a79 1f3f 46df ef3e f7ed 603f
00000320: a94e 133f d2c2 0a3f 79a7 8b3d cc4a 0f3f
00000330: 5d12 e83d 877b 953e 43c6 c83e 3315 823e
00000340: 1cf1 ca3c fbfb b43f 20fe 2e3f 1337 f1bc
00000350: 0054 cbbe 2698 83bd 109a 7d3f d8a5 b63e
00000360: d68e b23e 5a5b 24be d920 4e3f 19f6 913e
00000370: 2d9d 723e cae8 fd3e e81a 5a3e 720e e53d
00000380: 7f7b 3c3d 4767 c9bd 658e ae3d 278f 2abe
00000390: e109 a4ba b480 603e 1ede 433e f09b 83bd
000003a0: 77f2 35be 4134 6fbe 4c6f 42be 0655 62be
000003b0: 20dd 663e 820e 6cbc 5e38 b6bc 4888 59be
000003c0: 4f15 2b3e edde b2be 2472 19be 87fb de3e
000003d0: fadf 463f 60fd df3e be39 df3d 1234 df3e
000003e0: 598e 393f 76fc 513e cdcd ac3e e10f 743f
000003f0: a9d9 ad3e 5393 883f 5ac5 013f 733e 483e

se_block_event.1.2.bias f4 [64]
0.22194614 -0.13752136 0.7118949 1.3474675 0.7960934 1.5103811 0.17799202 1.3855985
1.2469847 -0.050837725 -0.7195576 -0.80912226 0.7168354 1.3019352 -0.10719585 -0.47999588
0.37485394 -0.95088726 0.107028715 0.22033639 1.3659301 1.8136239 1.3296092 -0.59204113
-0.37847865 1.2765292 0.75434184 -1.1824783 0.95496666 0.7125574 -0.3172275 -0.025489954
1.2689615 0.75453216 -1.2785674 1.319789 2.186216 0.6155559 1.8132266 0.97452205
-0.03969894 0.9495286 -0.73942953 0.52163416 1.2514629 0.617311 1.9539777 0.4355538
1.0508806 0.29295468 1.0270671 0.60332286 0.55224496 0.5698229 0.035976414 -0.23024002
0.929988 0.9318734 1.3362688 -0.9130179 -0.8210167 1.1068037 1.191259 1.3192582
00000000: d945 633e 66d2 0cbe bf3e 363f d179 ac3f
00000010: c7cc 4b3f 2b54 c13f 8a43 363e 4b5b b13f
00000020: 329d 9f3f 383b 50bd ed34 38bf a322 4fbf
00000030: 8682 373f d0a5 a63f 7f89 dbbd 05c2 f5be
00000040: dbec bf3e 596d 73bf df31 db3d dd9f 613e
00000050: ccd6 ae3f d424 e83f a230 aa3f 0290 17bf
00000060: f4c7 c1be 4f65 a33f 8c1c 413f 735b 97bf
00000070: b278 743f 296a 363f a56b a2be 4fd0 d0bc
00000080: 556d a23f 0529 413f 19a8 a3bf d9ee a83f
00000090: f7ea 0b40 1295 1d3f cf17 e83f 477a 793f
000000a0: 5b9b 22bd 4e14 733f 414b 3dbf d189 053f
000000b0: f02f a03f 1808 1e3f f11b fa3f e800 df3e
000000c0: 4183 863f 28fe 953e ef76 833f 5e73 1a3f
000000d0: ed5f 0d3f eadf 113f 015c 133d 0ac4 6bbe
000000e0: b213 6e3f 418f 6e3f db0a ab3f 8bbb 69bf
000000f0: 272e 52bf beab 8d3f 2d7b 983f 74dd a83f

se_block_event.2.0.weight f4 [16, 64]
0.67564666 0.51289195 0.642863 0.30840668 0.7628032 1.737313 0.054393858 1.4878588
0.7667379 0.16281834 -0.15568303 -0.27281177 0.67796576 0.2918425 0.054208357 -0.098830156
1.0988989 -0.08561828 1.5899038 0.3291751 0.8630504 0.936393 1.1259791 0.11196929
-0.33578417 1.1141323 0.6006129 0.61230284 1.1707946 0.6957935 0.055317406 0.2885367
0.5287407 0.40025175 -0.25258368 1.5199037 0.37309456 0.8213109 0.8788121 0.54273117
0.18121548 0.38402885 -0.05380471 0.57690096 0.8899384 0.63573396 0.70991 0.7812931
0.5526567 0.8487258 0.6461234 0.5312737 0.8210847 0.5628059 0.08748528 -0.12325438
0.6922293 0.5071333 1.2747917 0.8148158 -0.31110796 0.8959444 0.99028593 0.45120737
1.149499 0.5413464 0.48559707 0.8117038 0.7985802 1.1347855 0.048352364 0.97961193
0.7511054 -0.06467766 -0.18314682 -0.015640272 0.7443455 1.006472 0.116095625 -0.124046266
0.54749525 0.07567886 0.48112845 0.51171654 1.5316149 1.1619447 0.7670143 -0.070974484
0.0072305975 1.0616989 0.5271918 0.26215255 1.6069143 0.653104 0.10103604 0.057798147
0.23417266 1.0955031 -0.24814762 0.76755136 1.0129497 1.1176827 0.99655217 1.116393
-0.04332013 0.9953001 0.379798 0.538308 0.86997455 1.0899975 0.72110295 0.85275745
0.5367967 0.34013984 0.98300284 0.6775857 1.2361702 0.68271714 0.49342072 0.12601642
0.92552865 1.0466168 0.6480925 0.5311389 0.19389482 0.556917 1.2859292 0.6186922
1.3232021 0.57587886 0.38563332 0.33095708 1.3495227 1.4090669 0.19462462 1.0879841
1.451988 -0.23380016 -0.0019491813 -0.021906508 0.88883805 0.18205215 0.10906105 0.011152515
0.6824286 -0.021802515 0.822324 0.4149917 1.1389923 1.268878 0.9345881 0.37459847
-0.19495669 1.9850285 -0.07302341 0.16386718 1.313996 0.74806625 -0.06257984 0.030991975
0.48558897 0.7124196 0.03579198 0.9850656 0.6279272 1.528182 1.1266382 1.122469
-0.1606466 0.8086937 -0.12623832 0.403557 0.68751186 1.6397603 0.6265568 1.1408283
0.8706246 1.2619675 0.9837475 0.118974306 1.5810828 0.07585148 0.6068716 0.016711066
0.36713746 0.8807222 1.3934526 0.45941707 0.23230544 0.75390136 1.3953272 -0.029860001
0.4336531 -0.1491406 0.27252153 0.3245579 0.24487892 -0.20871091 0.036213998 -0.6778989
0.1916862 -0.020751948 -0.07246904 0.0059665246 -0.0054953345 1.1585723 0.04154727 -0.16270114
0.40591273 -0.002717445 1.0026137 0.33125943 0.5302314 0.6165056 0.1704776 -0.15654649
-0.026543278 -0.05305997 0.27976406 0.07713851 0.42373094 1.0010453 -0.025519412 0.59394103
0.16749173 0.2544477 -0.14675872 0.5572296 0.10303345 1.1953555 -0.2609458 0.45289052
0.1878555 -0.34704322 0.4757234 0.16237323 0.91420084 0.095803395 -0.20469598 0.8536911
0.595376 0.91773576 -0.5743988 -0.021103865 -0.3654222 0.5843324 0.62790793 0.24863163
-0.6154728 0.6328756 -0.4382747 0.54283506 -0.14709859 -0.0062633683 0.5515296 0.11854421
00000000: 2ef7 2c3f e34c 033f ab92 243f 7be7 9d3e
00000010: 1247 433f 4660 de3f 18cc 5e3d 2872 be3f
00000020: ef48 443f dab9 263e 5f6b 1fbe fcad 8bbe
00000030: 2a8f 2d3f 616c 953e 9509 5e3d 7767 cabd
00000040: b8a8 8c3f a358 afbd f881 cb3f a489 a83e
00000050: dff0 5c3f 74b7 6f3f 1520 903f 2850 e53d
00000060: e7eb abbe e39b 8e3f c4c1 193f e1bf 1c3f
00000070: 99dc 953f 861f 323f 8194 623d 15bb 933e
00000080: 8d5b 073f cced cc3e a652 81be 348c c23f
00000090: 4006 bf3e 6e41 523f d4f9 603f 6ef0 0a3f
000000a0: 8d90 393e 6e9f c43e 5462 5cbd c8af 133f
000000b0: 01d3 633f 76bf 223f a9bc 353f d302 483f
000000c0: e97a 0d3f 1846 593f 5868 253f 8e01 083f
000000d0: 9b32 523f 0c14 103f 7c2b b33d cb6c fcbd
000000e0: f035 313f 7dd3 013f 602c a33f c597 503f
000000f0: 8b49 9fbe 9d5c 653f 6183 7d3f a704 e73e
00000100: c922 933f ad95 0a3f 2ea0 f83e d2cb 4f3f
00000110: c16f 4c3f a740 913f 210d 463d d9c7 7a3f
00000120: 7248 403f b975 84bd d78a 3bbe 0720 80bc
00000130: 6d8d 3e3f 13d4 803f 8bc3 ed3d f80b febd
00000140: a628 0c3f 85fd 9a3d 7856 f63e dbff 023f
00000150: f50b c43f 9bba 943f 0d5b 443f 125b 91bd
00000160: a6ee ec3b c0e5 873f 0bf6 063f dc38 863e
00000170: 5eaf cd3f d331 273f fceb ce3d c0bd 6c3d
00000180: f5ca 6f3e 7239 8c3f 691a 7ebe 3f7e 443f
00000190: 56a8 813f 3a10 8f3f 0b1e 7f3f f7e5 8e3f
000001a0: 7370 31bd fdcb 7e3f e274 c23e 8ece 093f
000001b0: a7b6 5e3f 0a85 8b3f 349a 383f 504e 5a3f
000001c0: 826b 093f cf26 ae3e 13a6 7b3f 4276 2d3f
000001d0: d33a 9e3f 8dc6 2e3f a4a1 fc3e 730a 013e
000001e0: 72ef 6c3f 8af7 853f 64e9 253f b8f8 073f
000001f0: 5d8c 463e 1d92 0e3f 5499 a43f 9d62 1e3f
00000200: b05e a93f cc6c 133f bb71 c53e 3573 a93e
00000210: 29bd ac3f 4e5c b43f ad4b 473e 1043 8b3f
00000220: beda b93f 4f69 6fbe ac7b ffba 4775 b3bc
00000230: e48a 633f e16b 3a3e 665b df3d 0ab9 363c
00000240: a4b3 2e3f 309b b2bc d383 523f cb79 d43e
00000250: 80ca 913f 986a a23f 2a41 6f3f 5fcb bf3e
00000260: baa2 47be 6a15 fe3f 4c8d 95bd cccc 273e
00000270: 0531 a83f 4581 3f3f dc29 80bd e2e2 fd3c
00000280: 1e9f f83e 2261 363f 9c9a 123d 422d 7c3f
00000290: d6bf 203f 789b c33f ae35 903f 10ad 8f3f
000002a0: 8b80 24be 8d06 4f3f 9e44 01be 069f ce3e
000002b0: c700 303f aae3 d13f 0766 203f a906 923f
000002c0: 41e1 5e3f 2788 a13f e0d6 7b3f cda8 f33d
000002d0: ec60 ca3f 0558 9b3d f05b 1b3f a5e5 883c
000002e0: 71f9 bb3e 0377 613f a85c b23f b738 eb3e
000002f0: 7ae1 6d3e aeff 403f 159a b23f f69c f4bc
00000300: c707 de3e 50b8 18be f187 8b3e 742c a63e
00000310: 8ac1 7a3e 50b8 55be 2155 143d c88a 2dbf
00000320: 6349 443e fdff a9bc a66a 94bd d682 c33b
00000330: 3512 b4bb 194c 943f 782d 2a3d 219b 26be
00000340: cbd3 cf3e 2917 32bb a555 803f d69a a93e
00000350: 3fbd 073f 50d3 1d3f ae91 2e3e b94d 20be
00000360: 4a71 d9bc 6955 59bd 3c3d 8f3e ccfa 9d3d
00000370: 43f3 d83e 4122 803f 160e d1bc 850c 183f
00000380: f482 2b3e f846 823e eb47 16be 99a6 0e3f
00000390: 3403 d33d 6901 993f b09a 85be 44e1 e73e
000003a0: 315d 403e a6af b1be 0492 f33e 2b45 263e
000003b0: 1109 6a3f 9234 c43d d39b 51be 808b 5a3f
000003c0: 906a 183f bbf0 6a3f cd0b 13bf 03e2 acbc
000003d0: 9e18 bbbe cf96 153f 93be 203f 4a99 7e3e
000003e0: a08f 1dbf 2304 223f 8b65 e0be 3df7 0a3f
000003f0: 03a1 16be f13c cdbb 0b31 0d3f 4fc7 f23d

se_block_event.2.0.bias f4 [16]
-1.5552465 -2.5256367 -2.688041 -1.819931 1.1231787 -0.3731191 -2.8529065 -1.639728
-2.266039 -2.3143222 -2.4235756 -2.2384603 -3.1082792 -2.44343 0.8335752 -1.6681472
00000000: 5112 c7bf 08a4 21c0 dd08 2cc0 80f3 e8bf
00000010: 52c4 8f3f 7709 bfbe 0596 36c0 9be2 d1bf
00000020: c806 11c0 db1d 14c0 dd1b 1bc0 ef42 0fc0
00000030: 0cee 46c0 2861 1cc0 2f65 553f d985 d5bf

se_block_event.2.2.weight f4 [64, 16]
1.368864 1.0434533 1.5485097 1.195855 1.1158407 0.1706779 1.4897807 0.6153005
0.85490155 0.98456824 1.4881579 1.9652014 0.8769304 1.9721515 -0.039703436 1.2949576
0.5210164 1.3625381 1.8495399 0.26518685 0.091588415 -0.57292575 0.88421077 0.43762192
1.1791648 1.3778869 0.6930303 0.7384525 1.1252387 0.7865528 -0.69556326 1.2184969
0.4787856 0.43470484 0.5147625 0.63926524 0.80685836 0.68353635 0.5655678 0.1535585
0.26116562 0.27394068 0.2751401 0.8761391 0.16376199 0.4935554 0.3386777 0.68006957
0.90329415 -0.017075287 0.13152592 0.5216564 0.84421223 0.949555 0.22316611 0.42849436
0.45662832 0.54189825 0.48150918 0.45223802 0.37838477 0.43406376 1.2171642 0.7698939
0.69065 0.5244527 1.0034074 0.6311527 1.3199587 0.8122204 0.9215957 0.46113816
0.7057545 0.774823 0.8985859 0.6807661 0.18876477 1.5922934 0.91954535 1.3747909
1.688748 0.5611128 0.51453817 0.2303299 1.3818781 0.8362957 1.067676 0.25153705
0.5771646 0.7514858 0.3470032 1.107292 0.6239308 0.7684713 1.5009269 0.9857854
0.3962976 1.3089997 1.5005558 0.41513896 -0.314421 -0.34436497 0.8902677 -0.3232983
0.55810654 0.6515527 1.5530396 0.73184985 0.9920198 1.4630826 -0.5540039 -0.06009309
1.473748 0.24575123 0.7866116 0.8999581 2.1107817 0.60257685 0.8743038 0.34955412
0.40731737 0.19388476 0.63622844 0.6093952 0.64475423 0.6041536 0.8150161 1.1504308
0.50186557 -0.126987 0.15879078 0.9983935 0.8917101 1.6721348 0.15226671 0.30189383
0.5308243 0.08651725 0.1901097 0.44330284 0.15855184 0.18863693 1.7032207 0.6077332
0.214175 0.64765924 0.7686201 0.45163217 0.65863943 0.031963143 0.6088848 0.3014387
0.4304391 1.1894356 0.75790185 0.57372844 1.287046 0.8499156 -0.4941104 0.19926424
1.4890352 1.1833881 1.6029133 1.6640061 -0.029683834 -0.7741263 1.2949537 0.85540485
1.217837 1.1929224 1.342774 1.2955756 0.80500335 1.4930062 -0.79045373 1.2032218
0.24508944 0.5282098 0.39108038 -0.2374936 -0.13180149 -0.2881249 -0.20199388 0.061761983
0.06229791 -0.05074982 0.30578026 0.32985762 0.53127337 0.14815184 -0.15953961 0.49852875
0.8730569 0.34746712 0.53287405 0.7155386 0.5470929 0.18653375 0.72149235 0.23626655
0.29902175 0.17791517 0.6139676 0.9401361 0.30353796 0.20010146 0.21491334 0.002318655
0.5952616 0.8161751 0.024859603 1.1262171 0.9605037 0.8937161 1.0247366 0.91464925
0.36936125 0.5515898 0.7397851 0.71950704 0.56096876 0.74080694 0.7894451 0.49372476
0.0266189 -0.097465076 0.19427978 -0.1265247 0.19018313 0.14039297 0.044841446 -0.1336647
0.13676329 0.0998289 -0.08997984 0.25869885 0.04711784 0.09473401 -0.103130184 -0.12426818
0.6316509 0.38090637 0.7648239 0.64440745 -0.267315 -0.08518305 0.13966392 -0.047587525
-0.015006129 0.4926394 0.6666298 -0.07456706 0.08319334 0.6028484 -0.16422954 0.37831154
00000000: f036 af3f e18f 853f 9135 c63f c711 993f
00000010: ded3 8e3f 30c6 2e3e 22b1 be3f 5584 1d3f
00000020: d4da 5a3f aa0c 7c3f f57b be3f b88b fb3f
00000030: 837e 603f 766f fc3f 12a0 22bd 2cc1 a53f
00000040: 5561 053f a667 ae3f b9bd ec3f 92c6 873e
00000050: b592 bb3d 43ab 12bf a35b 623f fb0f e03e
00000060: dfee 963f 995e b03f 6f6a 313f 390b 3d3f
00000070: d207 903f 865b 493f 6f10 32bf b5f7 9b3f
00000080: 6323 f53e a291 de3e 7ac7 033f e3a6 233f
00000090: 458e 4e3f 3dfc 2e3f 0dc9 103f 703e 1d3e
000000a0: 80b7 853e f441 8c3e 2adf 8c3e a74a 603f
000000b0: 39b1 273e 4bb3 fc3e 2a67 ad3e 0a19 2e3f
000000c0: 493e 673f 79e1 8bbc bbae 063e 468b 053f
000000d0: 4b1e 583f 0916 733f a885 643e 9d63 db3e
000000e0: 30cb e93e d8b9 0a3f 5f88 f63e be8b e73e
000000f0: a6bb c13e 9b3d de3e 09cc 9b3f c417 453f
00000100: 70ce 303f 8842 063f a76f 803f 3993 213f
00000110: 68f4 a83f aded 4f3f b2ed 6b3f 4d1a ec3e
00000120: 54ac 343f cd5a 463f ba09 663f b046 2e3f
00000130: 8d4b 413e 45d0 cb3f 5367 6b3f 26f9 af3f
00000140: e528 d83f 17a5 0f3f c6b8 033f 9adb 6b3e
00000150: 62e1 b03f 7a17 563f 9ba9 883f 77c9 803e
00000160: 0fc1 133f 6061 403f 67aa b13e bfbb 8d3f
00000170: eeb9 1f3f 89ba 443f 5f1e c03f 6f5c 7c3f
00000180: 85e7 ca3e 4d8d a73f 3612 c03f 188d d43e
00000190: cafb a0be 9b50 b0be 96e8 633f 5b87 a5be
000001a0: 12e0 0e3f 28cc 263f 00ca c63f 835a 3b3f
000001b0: 02f5 7d3f 4a46 bb3f 33d3 0dbf 2c24 76bd
000001c0: c6a3 bc3f 36a6 7b3e 615f 493f a763 663f
000001d0: 0c17 0740 7a42 1a3f 60d2 5f3f c2f8 b23e
000001e0: e78b d03e ba89 463e dedf 223f 5301 1c3f
000001f0: 9d0e 253f cfa9 1a3f e5a4 503f 5141 933f
00000200: 437a 003f e108 02be 0d9a 223e b796 7f3f
00000210: 1d47 643f 8308 d63f ceeb 1b3e d491 9a3e
00000220: 1ae4 073f f52f b13d 1eac 423e 97f8 e23e
00000230: 6a5b 223e 0a2a 413e 2303 da3f 6794 1b3f
00000240: b150 5b3e ffcc 253f 49c4 443f 553c e73e
00000250: 989c 283f c9eb 023d e0df 1b3f 2c56 9a3e
00000260: 8462 dc3e 6d3f 983f db05 423f dedf 123f
00000270: ecbd a43f 1294 593f 0afc fcbe ed0b 4c3e
00000280: b598 be3f 4379 973f 432c cd3f 27fe d43f
00000290: 832b f3bc 242d 46bf 0bc1 a53f d0fb 5a3f
000002a0: 15e2 9b3f aeb1 983f 05e0 ab3f 6cd5 a53f
000002b0: b314 4e3f d41a bf3f 2d5b 4abf 2c03 9a3f
000002c0: baf8 7a3e c238 073f b03b c83e 8631 73be
000002d0: f8f6 06be 1b85 93be 7cd7 4ebe 22fa 7c3d
000002e0: 182c 7f3d 0bdf 4fbd 3b8f 9c3e 19e3 a83e
000002f0: 8801 083f 1eb5 173e 5a5e 23be 293f ff3e
00000300: a880 5f3f 36e7 b13e 6f6a 083f 8a2d 373f
00000310: 480e 0c3f b402 3f3e b9b3 383f dcef 713e
00000320: 6119 993e 652f 363e fb2c 1d3f c2ac 703f
00000330: 5469 9b3e 66e7 4c3e 3e12 5c3e 93f4 173b
00000340: 1063 183f daf0 503f 5ea6 cb3c e227 903f
00000350: 92e3 753f 94ca 643f 922a 833f 7426 6a3f
00000360: eb1c bd3e fd34 0d3f 8e62 3d3f 9d31 383f
00000370: a69b 0f3f 86a5 3d3f 1319 4a3f 7ec9 fc3e
00000380: e10f da3c c59b c7bd 47f1 463e b18f 01be
00000390: 5ebf 423e 2dc3 0f3e aaab 373d 66df 08be
000003a0: ad0b 0c3e 1873 cc3d 5a47 b8bd 2d74 843e
000003b0: a3fe 403d e803 c23d eb35 d3bd 5180 febd
000003c0: e0b3 213f 2906 c33e 80cb 433f e3f7 243f
000003d0: 83dd 88be 7374 aebd 0f04 0f3e 23eb 42bd
000003e0: 44dc 75bc 3b3b fc3e 40a8 2a3f 9db6 98bd
000003f0: 4561 aa3d 4654 1a3f ca2b 28be 0db2 c13e

se_block_event.2.2.bias f4 [64]
-0.05960308 0.053061597 1.0952276 0.8996552 0.73254615 1.3957402 0.15937021 1.1304011
2.0324416 -0.8014683 -0.62819225 -1.0565351 0.17382136 1.0907402 -0.05362217 -0.5252286
0.69678026 0.27065977 -0.2057093 0.032685675 1.6145185 1.8699499 0.8088099 -1.1242696
-0.29805282 1.3877568 0.51251286 -1.2450563 -0.08580128 0.3748014 -1.5515841 -0.14148916
0.6651932 0.47213766 -1.0846812 1.3147502 1.9114953 0.30879462 1.33415 0.79745305
-0.1550772 0.90330994 -0.2030263 -0.08107736 1.5850351 1.0793887 1.1363467 0.54949445
0.25882313 0.19253813 1.4249963 -0.093324654 0.9403451 0.94080704 0.046640597 -0.8640927
1.5880048 0.30185127 1.7076354 -1.0748882 -1.2462171 1.1990403 0.8861396 -0.06797314
00000000: 5c22 74bd 1e57 593d 6b30 8c3f ce4f 663f
00000010: 2588 3b3f 9da7 b23f f231 233e fcb0 903f
00000020: 8613 0240 072d 4dbf 35d1 20bf 8b3c 87bf
00000030: 3afe 313e 609d 8b3f eca2 5bbd 6275 06bf
00000040: 3160 323f eb93 8a3e 75a5 52be 6ae1 053d
00000050: 8ba8 ce3f 855a ef3f 2a0e 4f3f 11e8 8fbf
00000060: 619a 98be 04a2 b13f 0b34 033f 015e 9fbf
00000070: 95b8 afbd f8e5 bf3e 4f9a c6bf 89e2 10be
00000080: 1a4a 2a3f 07bc f13e d5d6 8abf bc49 a83f
00000090: e1ab f43f 541a 9e3e 6dc5 aa3f e225 4c3f
000000a0: 8fcc 1ebe 523f 673f 20e6 4fbe e30b a6bd
000000b0: 6ee2 ca3f 6929 8a3f cf73 913f abab 0c3f
000000c0: 7784 843e b728 453e 4766 b63f ff20 bfbd
000000d0: 75ba 703f bbd8 703f 360a 3f3d 2e35 5dbf
000000e0: be43 cb3f 408c 9a3e cc93 da3f f095 89bf
000000f0: 0b84 9fbf 277a 993f 0bda 623f 8035 8bbd
